models/05_going_modular_script_mode_tinyvgg_model.pth (torch, 37557 bytes, 10 tensors)

conv_block_1.0.weight f4 [10, 3, 3, 3]
00000000: 826a ca3d ce7e b03d 718d d63d c8b8 7fbb
00000010: 8594 003e c90f db3d 58db 90bd c49c da3d
00000020: c12a 34be 1aa5 14be 936f 22be 035a 97bd
00000030: a29c fdbd eb55 103c af49 af3d 42ab c83d
00000040: 4fd5 2bbd b3a5 f13d e828 28be c538 44bd
00000050: 5cd6 923d 1423 8d3d dd77 9abd fbfb c33c
00000060: 3fed 603c 782c 01be ad2c 44bd 56d4 bfbc
00000070: 1c46 26be afb6 86bd afc4 25be 7926 42be
00000080: 7b90 3d3d c933 3b3e c930 dfbd 98b0 87bd
00000090: be61 f53d 5ce1 243e a3ea 903d 733a 833d
000000a0: 9480 033e 5cd1 55bd e63a 073e eeaf cabd
000000b0: 8929 053e 1e4d c8bd 9964 a23c 51ac 29be
000000c0: 46f3 b8bd 056d 40bc aa6e a73c 65f1 e63c
000000d0: f403 203e 1846 023e 1701 e4bd 08d4 273e
000000e0: a665 a13b c29c 303e c505 90bc c075 1e3e
000000f0: 63f2 ae3d bc09 41bd 5e39 0d3e b789 aebd
00000100: ee23 c53d 96e5 a0bd 2b2d 07be e5c1 f4bd
00000110: c18b 00be f278 22be 0855 78ba a9c3 cdbd
00000120: 77ab 363e 4260 f93d 1e72 393d 248c 4a3e
00000130: e3c9 0d3e 526a 443e dee1 f53b d7c4 a3bd
00000140: 55d7 44bc fe9e aebc 04ae c1bd 442a 83bd
00000150: 032b 28bd 5978 4fbc 3b2c cdbc 3655 3fbe
00000160: c78e c5bd aec5 453d aaf5 e73d c43d 33be
00000170: c3f8 343e b2d2 b33d edcb 1f3e 5912 6ebc
00000180: 8abe 40be cd30 3f3e 5c9d 1b3e 49b6 c1bd
00000190: d490 f7bd ad6c 933d 86bd 283e 42e7 41be
000001a0: 5c42 563d ed88 003e e2f9 b93d ea2d f53d
000001b0: 26d7 44be b0c4 44be 5a10 4dbe 2d9c 19bd
000001c0: 5870 e53d 07eb d2bd ebf4 48be faa4 003e
000001d0: 9f27 a63d c8a6 b63c 94d0 2cbe d386 f13d
000001e0: 1c5a d23d 2851 043d 0b82 d03b 38dc 043e
000001f0: 6f8b 17bc 8c49 0ebe bdb1 43be e084 a0bc
00000200: bfb9 dbbd 8a23 b8bd fabb 0cbd 1a71 82bd
00000210: d9ca 203e 55e3 bd3d ddeb 1abe 7541 033d
00000220: 94c9 61bc aae3 d5bc 28e1 913d c61a 893d
00000230: e2ea ec3d 164f 703c 06c7 4b3e 34c6 3c3d
00000240: a1ea b73c 05eb 5bbd 06a9 37be 42ed 0d3e
00000250: d5a4 b53d 49d6 c7bd c760 7bbc 2e8a 0fbe
00000260: e663 c53d eb9d f0bd f331 f53d 89a5 813d
00000270: 7e64 153e 1968 bebd e821 22bc bd72 a93c
00000280: ab2e f23d 803c 26be e508 85bd 33ab 0abe
00000290: 28bc fc3d 836d 2bbe d057 f6bd f55a 16bd
000002a0: 7516 51bd 6744 2cbe 0cec a03d 8425 f83c
000002b0: 3844 2bbe c59e d63b abae 2bbd ecaf e13c
000002c0: 4238 18be cb07 e6bd 0edc 393e 066e 223e
000002d0: 2b75 3cbd 4bbc 8e3d cc09 42bd 1ef0 1fbd
000002e0: 393e 18bb 6494 bf3d f57f eabd 4e0d f7bc
000002f0: 8a17 27be b093 293d 2902 00be fbc7 fa3c
00000300: 10f2 323e 75da 5b3d aa15 18b9 c64a 963d
00000310: 0cea 22be a4ec 42be cce3 d23d e93a 3bbe
00000320: b51f 263d 673c 263d 8cbe e63d 32f1 eb3d
00000330: 65b8 95bd 6834 763d c0c5 c3bd a319 20be
00000340: a8ba f73c 9c86 e7bb b8ce b3bd 138a 43be
00000350: 0d39 f1bd 214c 143d 8968 0b3e f843 ddbd
00000360: 5f75 43be 8eba 42be 3a86 9ebd ad5b 1dbe
00000370: f445 973d 66c0 fdbd f9ef 31be fd0a a13d
00000380: b6a0 f2bc a8e0 13be 8178 ccbd d4ce 113e
00000390: 5f5b 243d fccc 0bbb f217 91bd d2cd 24be
000003a0: 170c ff3d b076 453d c550 343e 4ba8 21be
000003b0: f707 27be 9f13 c73d 8a9b 60bd 3f1a f63d
000003c0: 4b82 36be 7cfe 36be 7de3 c2bc a381 adbd
000003d0: d835 e3bd 59b3 ddbb 5dde 3e3e 34ad 81bd
000003e0: 33d1 4e3e 7e66 4b3e f50c aebd e13b 483e
000003f0: ec44 113e 9773 c2bd d6b7 01be 174d 2bbc
0.09883596 0.08617936 0.104761966 -0.003902005 0.12556656 0.1069637 -0.070730865 0.10674432
-0.17594434 -0.14516106 -0.15862875 -0.07390215 -0.12383391 0.008809547 0.08558976 0.0979829
-0.041951474 0.11799183 -0.16421854 -0.047905702 0.07169792 0.06891456 -0.07542393 0.023923865
0.013728439 -0.1261462 -0.04789417 -0.02341668 -0.16237682 -0.06577813 -0.1618831 -0.18959989
0.046280365 0.18281473 -0.10897977 -0.066254795 0.119815335 0.16101593 0.070760034 0.06407633
0.12842017 -0.052201614 0.13206062 -0.09896837 0.13004126 -0.09780334 0.01982336 -0.1656964
-0.09030776 -0.011744742 0.02043851 0.028191278 0.15626508 0.12722051 -0.1113302 0.16389477
0.0049254475 0.17247298 -0.017580876 0.15474606 0.08542325 -0.047128424 0.13791415 -0.08522361
0.09625994 -0.0785629 -0.13200824 -0.11951045 -0.12553312 -0.1586645 -0.000947312 -0.10047085
0.17838846 0.12176563 0.045274846 0.19780022 0.13846545 0.19181183 0.007503732 -0.079965286
-0.01201423 -0.021316048 -0.09457019 -0.06404546 -0.041056644 -0.01266297 -0.025045505 -0.18684849
-0.09646373 0.048284225 0.113261536 -0.1750403 0.1767302 0.08780421 0.15605135 -0.014530742
-0.18822685 0.1867096 0.15196747 -0.09458596 -0.12088171 0.07198463 0.16478547 -0.18935874
0.05230938 0.12552233 0.090808645 0.11971648 -0.19222698 -0.19215655 -0.20025769 -0.037502456
0.112030685 -0.10298734 -0.19624679 0.12562934 0.08113026 0.022296324 -0.16876441 0.11793294
0.10271093 0.03230396 0.0063631586 0.12974632 -0.009249552 -0.13895243 -0.1911077 -0.01959461
-0.10728788 -0.089911535 -0.034358956 -0.06369229 0.1570238 0.09271876 -0.15129037 0.032044847
-0.01378097 -0.026109535 0.07123023 0.0669456 0.11568238 0.014667293 0.1990014 0.04608746
0.022450747 -0.05369093 -0.17935571 0.13860038 0.0886933 -0.097576685 -0.015342898 -0.14017555
0.09638195 -0.117488705 0.11972418 0.063304015 0.14589116 -0.09297199 -0.009895779 0.020684594
0.118253075 -0.16234016 -0.06495837 -0.1354187 0.123405755 -0.16740994 -0.12028468 -0.036707837
-0.051046807 -0.16822968 0.07857522 0.030291326 -0.16725242 0.0065496885 -0.041914623 0.027549706
-0.1486521 -0.11231955 0.1815035 0.15862283 -0.046010178 0.06969508 -0.047372624 -0.039047353
-0.0023230447 0.09354475 -0.11450187 -0.030157711 -0.16317573 0.04140061 -0.12500824 0.030612936
0.17475152 0.053675134 -0.0001450392 0.07338481 -0.15909594 -0.19035584 0.10297355 -0.18284191
0.040557582 0.040584948 0.11266813 0.11520614 -0.07310561 0.060108572 -0.09559202 -0.1563478
0.030240372 -0.0070656072 -0.08779663 -0.1909564 -0.1177846 0.036205415 0.13614096 -0.1080398
-0.19087742 -0.19016477 -0.077404454 -0.15367003 0.073863894 -0.12390213 -0.17376699 0.07863424
-0.029617649 -0.14441168 -0.09983922 0.14239055 0.0401262 -0.0021331897 -0.07084645 -0.16094139
0.12453478 0.048208892 0.17608936 -0.15786855 -0.16311632 0.09720539 -0.054835834 0.12016725
-0.1782314 -0.17870516 -0.023790115 -0.08471992 -0.11094254 -0.0067657647 0.18639512 -0.06331864
0.2019699 0.19863316 -0.08498565 0.19554092 0.14186448 -0.09494703 -0.12667784 -0.010455391

conv_block_1.0.bias f4 [10]
00000000: 6ac3 3f3e c23b 2d3e 1249 853d aede 9c3c
00000010: 4cd1 9fbd 4096 8a3d b685 d2bd 44b5 8e3d
00000020: 9f4d 67bb 81ca 093e
0.18726888 0.16917327 0.06508078 0.01914915 -0.07803592 0.06766939 -0.102794096 0.069681674
-0.0035294069 0.13456155

conv_block_1.2.weight f4 [10, 10, 3, 3]
00000000: 9520 593d 04f3 8b3d 72dc 8bbd 1d01 50bd
00000010: 3493 403d 9abc c73d 2695 7b3d f75d adbd
00000020: 6266 ba3d af28 283d 40db 603d 909b 7abd
00000030: 153f 91bd d31a 883d 677d 003d e6e5 623d
00000040: 0d87 d8bc 3ee1 82bd ab93 e1bb 6e63 123d
00000050: 8a1b 7abc d75a 2e3d 46d4 023d 801a bebd
00000060: b05e 35bb ccdd b03d c672 60bd d120 373d
00000070: d344 33bc 0418 a33d 886e c43d 3cd3 be3d
00000080: 10d8 72bc 7090 8ebc 3d57 a03d 7efe 94bd
00000090: e46f 903d 91d6 a13d 6655 20bd b957 b2bd
000000a0: 863e 9a3c 7914 a63d 8294 81bc c1a8 bd3c
000000b0: 5449 c93d 6534 c83d e99c 013d 768d 4d3d
000000c0: c0ea 053d afc6 0fbb a562 09bd 8df1 70bd
000000d0: d047 24bd 0b12 a73d 3107 b83a f430 81bd
000000e0: d2e1 7e3d e158 b1bd af93 fd3c bdbe 983d
000000f0: 8cdf bfbd 4b46 6ebd 4bbb d3bd c7be a1bd
00000100: 2f4c 383d ca7a 0a3d 5081 aabd 13c2 f4bd
00000110: 250d f0bd 7b4a 2abd fa0e 8abd f0ae f6bd
00000120: 6b29 a7bb d661 8d3c abce 2e3d bef7 d1bb
00000130: 5c5f b8bd 41a6 2bbd 53a2 3f3d a037 05bd
00000140: 2045 063d db70 733d b4e6 893d 5899 04bd
00000150: d0c5 40bd 6e17 0d3c 263b d23d 18dd b43d
00000160: ec9f 793d 72ef e4bb 7e44 2f3d 8595 b7bd
00000170: b514 923d d6e8 a13d 97ac ab3d b9a7 debd
00000180: e80c cdbd 1809 8f3d cc99 edbc 23b3 1cbd
00000190: e5aa fa3c 0847 b0bd 4a79 c43d b393 56bb
000001a0: b005 1fbd 7346 c3bd 686c 923b b18b d8bc
000001b0: ab7b e2bd 479a 85bd 2196 29bd ca24 dcbd
000001c0: 70a6 c4bd 1099 32bc 4f05 5fbc 3740 8a3c
000001d0: 6958 5d3d 60ad 9abc e253 1dbd 21e8 2c3d
000001e0: 8017 c53c a650 ad3d 3cd7 823c 6167 83bc
000001f0: c73f 223d e44f 13bc 7202 cebd 267a a8bd
00000200: 8fb6 653b 0109 42bd 2b42 ac3d 9546 9abd
00000210: 6b5e d7bc ed93 183c 6e2c 70bd 21cf 63bd
00000220: 40ea 823c 39c3 76bc 07ff 973d 2790 81bc
00000230: 778f d0bb 7b5f 953d 7ce6 a7bd 9298 babd
00000240: 0a41 303d bf4d 22bd dead 59bb 5ddd c7bd
00000250: 1c3f a1bb a1a5 893d 477d f03c 9a9a fcbc
00000260: 662d 233d 0167 b43b 08a1 8dbd 2e93 593d
00000270: fbaa bd3d 1760 74bd 2e39 9ebc 2b6c 4a3d
00000280: de9f 75bd 88d9 a5bc dc27 acbd cf58 503d
00000290: 2832 cabd 780b fbbc d03f 853d 31ec bf3d
000002a0: 275b 19bd 1a03 613c 9d40 973c 68cb 5cbd
000002b0: d5ba 983d feeb a5bd 092f 9bbd b8ad e3bd
000002c0: b813 2e3c 3773 d0bd 50af e7bc 0a23 b73d
000002d0: 9ba8 103c 5d4e 523d 695b 92bc fba4 d1bd
000002e0: 73d8 bebd 1a79 a4bd 209a a03d 0b07 7d3d
000002f0: 88cb 003d 015b d2bd 6280 cdbd c871 4c3d
00000300: 2e4e b7bd b92b ba3c f92e 16bd e0e5 4ebd
00000310: c3b2 b1bd de5c 213d 7ff8 ba3d ff4a 823d
00000320: e36d cebd be26 9abd 71c7 493b 27d7 c9bd
00000330: be5f c5bd 19ea d3bd f61c 5d3d a715 2f3d
00000340: c664 8c3d 98ad 8f3d 5d53 2f3d 5c48 a1bd
00000350: 4754 acbd 6759 d1bd 6208 143d 960f 91bd
00000360: 69bf d43d 0865 36bb 6e1d 9a3d ee27 6ebc
00000370: bbe1 433d d419 933d 0c80 7dbd 8d80 b3bd
00000380: 5517 42bd ea77 70bd 1583 2f3d 62ef 7dbd
00000390: 8d7d ec3c 38a1 d9bd 108f efbc 9f97 2b3c
000003a0: ead6 133c 7a33 f83c fc0c 40bd 0e10 62bd
000003b0: 483c e9bc 49c9 a3bd a4fd 32bd 2dda a6bd
000003c0: b022 d1bd 6dd3 823d 11e4 c53d 4951 863d
000003d0: fd7c 933d 34ec 053d 91ce d53c fe40 9cbd
000003e0: 1984 f1bc a170 91bd bda7 ad3d 5a2d 80bd
000003f0: ba54 febc 0634 663d e9ad 683d ad86 dd3d
0.05300959 0.06833461 -0.06829156 -0.05078231 0.047015384 0.0975277 0.061421536 -0.08465188
0.09101559 0.041054424 0.054896593 -0.061183512 -0.0709211 0.06645741 0.031369593 0.05539503
-0.026431585 -0.06390618 -0.0068840585 0.035739355 -0.015265355 0.0425671 0.03194072 -0.09282398
-0.0027674846 0.086360544 -0.054796956 0.04470903 -0.010941702 0.07963565 0.09591395 0.093176335
-0.014822021 -0.017402858 0.078291394 -0.07275103 0.070525914 0.079022534 -0.039143942 -0.08708138
0.018828642 0.081093736 -0.015817884 0.023151757 0.09828439 0.097756185 0.03164378 0.050183736
0.03269458 -0.0021938493 -0.03354134 -0.05882411 -0.04010755 0.08157738 0.0014040229 -0.06308165
0.062227078 -0.086595304 0.03095421 0.074582554 -0.0936881 -0.058172505 -0.10338458 -0.07897716
0.04499453 0.033808507 -0.08325446 -0.11951079 -0.11721257 -0.041574936 -0.06741138 -0.120450854
-0.005101373 0.017258566 0.042677563 -0.006407707 -0.09002563 -0.0419066 0.046785664 -0.03252375
0.032780766 0.0594338 0.06733456 -0.032372802 -0.04706365 0.008611543 0.10265188 0.08831233
0.06094353 -0.006986552 0.04278993 -0.089640655 0.07132856 0.07905738 0.08382528 -0.10871834
-0.10012227 0.06984156 -0.029004 -0.038256776 0.030599067 -0.08607298 0.095934466 -0.0032741844
-0.038823783 -0.095349215 0.0044684894 -0.026433798 -0.11058744 -0.06523567 -0.04140294 -0.107492045
-0.09602058 -0.010900751 -0.0136121055 0.016876323 0.054039393 -0.0188815 -0.038410075 0.042213563
0.024059057 0.08462648 0.015971772 -0.016040506 0.039611604 -0.008991215 -0.1005906 -0.08226423
0.003505144 -0.047371868 0.08411058 -0.07532994 -0.02629014 0.009312612 -0.05863612 -0.055617455
0.01598084 -0.015061193 0.074216895 -0.015815808 -0.0063647586 0.07293602 -0.08198258 -0.09111132
0.043030776 -0.039624926 -0.0033215205 -0.097590186 -0.0049208533 0.06721044 0.029356612 -0.030835439
0.039838217 0.005505443 -0.0691548 0.053118877 0.092611276 -0.05966195 -0.019314375 0.049419563
-0.059966914 -0.020245329 -0.0840604 0.050865944 -0.09872848 -0.030645117 0.06506312 0.09371222
-0.037440445 0.01373365 0.018463427 -0.05390492 0.074575104 -0.081016526 -0.075773306 -0.111171186
0.0106248185 -0.101782255 -0.028281838 0.0894223 0.008829261 0.051344264 -0.017865853 -0.10236546
-0.09318628 -0.08030911 0.07841897 0.061774295 0.031444103 -0.10271264 -0.10034253 0.049913198
-0.089504585 0.022725927 -0.03666589 -0.050512195 -0.08676674 0.039395206 0.09129428 0.063619606
-0.10079553 -0.07526921 0.0030789042 -0.0985549 -0.09637402 -0.10347385 0.053982697 0.04274526
0.068551585 0.07015532 0.04280411 -0.078751296 -0.08414512 -0.1022213 0.036140807 -0.07083051
0.10388071 -0.0027831215 0.075251445 -0.014535887 0.047822695 0.07182661 -0.061889693 -0.087647535
-0.047385532 -0.05870811 0.04284962 -0.06199587 0.028868461 -0.10626453 -0.029243022 0.010473161
0.0090234075 0.030297983 -0.046887383 -0.055191092 -0.028471127 -0.079973765 -0.04369892 -0.081470825
-0.10211694 0.063879825 0.09662641 0.06558473 0.07201574 0.032695964 0.026099475 -0.07629584
-0.029481934 -0.071015604 0.08479259 -0.0625865 -0.03104626 0.056201957 0.05680648 0.10816703

conv_block_1.2.bias f4 [10]
00000000: 8cf2 9abd 85b3 203c 1628 8ebd bcd7 8dbc
00000010: 910d 263d b633 e73d 010a debc f058 50bd
00000020: e49f 403d 21a2 3f3c
-0.075657934 0.009808426 -0.069412395 -0.017314784 0.04054028 0.1128916 -0.02710438 -0.050866067
0.047027484 0.011696369

conv_block_2.0.weight f4 [10, 10, 3, 3]
00000000: ba52 c8bc ada2 033d 5e70 203d de4f d3bc
00000010: 90dd 4ab9 586a c33d f365 dd3d 4aa1 53bd
00000020: be8b 373d 0d51 64bd c5f1 bb3d 45d9 d93d
00000030: dbb0 a13d c709 433d 6695 d33d 748b 833d
00000040: adda a73d e129 adbd f013 8ebd 7a38 9c3d
00000050: 8731 1ebd bc5a 8b3c 41e7 4e3c 3244 543d
00000060: 5505 8fbd 960b 36bd a0b4 8d3d 9e57 863d
00000070: d8dd f4bc 1ffb bf3c 5e3a 673d 9bec 0d3d
00000080: a086 053d 81ea 05bd 1417 4dbd 4581 ad3d
00000090: 8cca ecbd a243 a13d 3db5 6abd 0294 123d
000000a0: c605 f63c aef9 b8bd f418 46bd a28c a83b
000000b0: 6e0e bfbd f79e ff3c 6f3b 6a3d ce47 48bd
000000c0: 8392 86bc f4a5 e33c 70ba 66bd 027f e6bd
000000d0: b53e e0bd afc8 96bc 7531 27bd eb82 053d
000000e0: 7893 52bb e4c2 73bc 3539 833d c89a 593d
000000f0: eb9b d23d 8b5d e23d 5c54 08bd 61c2 0abd
00000100: 8ec9 843d b95e c33d b153 cb3d 469e 2f3d
00000110: 3b7f cb3d b1e8 93bd 344d c8bc 7654 8d3b
00000120: 6ba9 b8bd 9427 953d dd3e bd3c 25ce 8b3c
00000130: ac74 cabd 8268 b8bd a5cd fe3b 790b a13d
00000140: 0b46 883d 2df0 9e3d 7fe2 7b3d ec02 cabd
00000150: df4f d03d fe46 e9bc 2d8f c23d 93d8 bd3d
00000160: 733d 94bd 12fe d03d d417 033d a25f a9bc
00000170: 7fe5 b6bc fb9a 64bc 300e 143d e6c5 8f3d
00000180: 89bb 3cbd ed82 6d3d 7b6c cfbd 6a8c bdbb
00000190: 39a8 103d 7ccb b23d 2179 8cbc 986d 253d
000001a0: 7180 d33c 74d1 983d eb80 cc3d 5d51 703d
000001b0: 48f2 853d 9a07 ca3d 8e6a 023d bee8 9b3d
000001c0: 51ac 9dbd 39c8 62bc 13eb 383d ddec 033d
000001d0: 6a33 be3d 880b 49bc d6cd 563d fa85 d83d
000001e0: 3102 2ebd a280 2f3d d666 72bd 3eda f03c
000001f0: 5429 06bd fbbf 8c3c 314f 26bd 293d a3bd
00000200: 38a8 b53c bc43 2cbd 7e4a b53d 7aea a13d
00000210: 8fbc 013c e6b7 e4bd 9593 76bd bc89 5cbd
00000220: db77 73bd 928b d33d 2c5c c2bd c6bf 2dbc
00000230: 8450 9cbc 6c8f 93bc a012 a53c 79e5 a73c
00000240: 0b9e db3c 6cc0 473d 42d8 64bd b36c 96bd
00000250: c9fa 163d 9d23 143c 693e 06bd 8967 ab3d
00000260: 6ec4 81bd e20b 363d 604c 0b38 2532 c73d
00000270: 8f80 b13b 7e74 2f3d 5895 2bbd e0bc 3c3d
00000280: 4c7b 823d 7a28 853d f040 2a3d 4b75 02bd
00000290: eefa 10bd d74b 93bd 6ee3 0bbd 96e0 da3c
000002a0: 8db7 c5bd 565e 97bd 9197 d5bc 13f0 64bd
000002b0: b117 60bb 9657 adbd c0b1 e6bd d3a2 07bd
000002c0: c303 813d 3b8d 13bd 5643 92bd 4bec 5ebc
000002d0: 81b2 d9bd e47d ec3c 6027 ab3d b139 93bd
000002e0: fe0d ca3d 5aaf 1f3c 092f d5bd 073f c2bd
000002f0: c639 263b b278 c03d cb4d 84bc 036d 62bd
00000300: 4558 38bd b0c8 923d d0c8 d8bb e5ab 81bc
00000310: d4b6 c4bd e645 c23d d746 74bd 8f8c 373c
00000320: 38b9 a93d 26ad adbb 289c 333d e447 fbbc
00000330: 14fd 953d 2d30 25bd 8724 84bd 7aff 5cbd
00000340: 63a5 a73d 7c7b c23d 61f9 60bd 1228 cc3d
00000350: 8456 6ebd d80a 603d 8d4f c93d c853 a0bd
00000360: 32ec cc3d c99c 693c 0a64 a83c 2da6 323d
00000370: f809 f7bc dc60 dcbd 50ec cb3d 773c 0f3c
00000380: 8829 373d 8f1d b1bd 6f48 bbbd 0253 f2bb
00000390: ddee 7fbd bb84 9b3d 9f4a 383c 3269 68bd
000003a0: 523b ca3d ec9c 123d 13d8 c73d 9341 91bd
000003b0: 3f8b bb3d bffe cb3d a0f3 503c 63ea bf3d
000003c0: f5dc 76bd bd04 d33c 7cc3 843d 6050 a0bd
000003d0: 61c1 8bbb 5d18 a0bd 78a2 85bd 2942 123d
000003e0: efb1 66bd 2a9b bebd 9a63 e5bc d80c 1d3d
000003f0: d704 9abd 347f bc3d ad1d aebc f6ab b93d
-0.02445351 0.03213756 0.03916966 -0.02579492 -0.0001934676 0.09541768 0.10810461 -0.05166749
0.044811003 -0.05574136 0.09176973 0.10637144 0.07895061 0.047616746 0.1033123 0.06423083
0.08196006 -0.084552534 -0.069373965 0.076279595 -0.03862145 0.017011039 0.012628377 0.05182285
-0.06983439 -0.044444643 0.06919217 0.065596804 -0.02989094 0.023435174 0.056452148 0.034649473
0.03259909 -0.032694343 -0.050070837 0.08471922 -0.1156207 0.07874228 -0.05730175 0.035785682
0.03003205 -0.090319976 -0.04836364 0.005143718 -0.09328924 0.03120373 0.057185587 -0.048896603
-0.016427284 0.027789094 -0.056330144 -0.112546936 -0.109494604 -0.01840624 -0.04081865 0.032595556
-0.0032131355 -0.0148780085 0.06407396 0.053126127 0.10283645 0.11052998 -0.033283576 -0.03387678
0.06483756 0.09539551 0.09928072 0.04287555 0.09936377 -0.07222117 -0.024450876 0.004313047
-0.09016689 0.072829396 0.023101265 0.01706607 -0.09885535 -0.09004308 0.0077759796 0.07863516
0.06653985 0.07760654 0.0614953 -0.098638386 0.10171484 -0.028476235 0.09499965 0.09269824
-0.07238283 0.1020471 0.032005146 -0.020675484 -0.02232623 -0.013952966 0.036146343 0.07020168
-0.046077285 0.05798619 -0.10128113 -0.005784561 0.03531668 0.08730218 -0.017147603 0.04038772
0.025818082 0.07461825 0.09985527 0.058671344 0.06540352 0.09864731 0.0318399 0.076127514
-0.07698882 -0.013841682 0.04514606 0.032208312 0.0928715 -0.012270816 0.052442394 0.10572429
-0.04248256 0.042847283 -0.059180103 0.029400941 -0.032754257 0.017181387 -0.040602867 -0.0797065
0.02217494 -0.042056784 0.08852099 0.07906051 0.007918491 -0.11167888 -0.06019934 -0.05384229
-0.059440475 0.10329355 -0.09490237 -0.010604804 -0.019081362 -0.018012725 0.020150483 0.020495163
0.02680876 0.048767492 -0.055870302 -0.073449515 0.03686026 0.009041694 -0.032774363 0.08369357
-0.06336294 0.044444926 3.3211312e-05 0.09726361 0.0054169367 0.042835705 -0.041890472 0.046078563
0.06371173 0.06501861 0.041565835 -0.03185014 -0.035395555 -0.071922 -0.03415244 0.026718419
-0.0965415 -0.0739104 -0.026073249 -0.055893015 -0.0034193809 -0.08463971 -0.11264372 -0.033114266
0.062995456 -0.03602336 -0.071417496 -0.013606141 -0.1062975 0.028868623 0.083571196 -0.07188738
0.0986595 0.009746397 -0.10409362 -0.09484678 0.0025364025 0.09398021 -0.016150376 -0.055279743
-0.045006055 0.07167184 -0.0066157356 -0.015829036 -0.09605184 0.09485988 -0.05963787 0.011202945
0.08287281 -0.005300182 0.043850094 -0.030673929 0.073236614 -0.040329147 -0.064522795 -0.05395458
0.08185842 0.09496209 -0.054925326 0.0996858 -0.058187976 0.05469784 0.09829626 -0.0782848
0.10005988 0.014258572 0.020555515 0.04361551 -0.03015612 -0.10760662 0.099571824 0.008742443
0.04471734 -0.08648216 -0.09144675 -0.007395149 -0.062483657 0.07593676 0.01124826 -0.056740947
0.09874596 0.035794184 0.0975801 -0.070925854 0.091574185 0.09960698 0.012753397 0.093708776
-0.060269315 0.025759095 0.06482598 -0.0782783 -0.004264996 -0.07817147 -0.06525129 0.035707626
-0.056322034 -0.09306939 -0.028001595 0.038342327 -0.075204544 0.092039496 -0.021254385 0.09066002

conv_block_2.0.bias f4 [10]
00000000: bc26 913d 2b36 cdbc ba17 96bd 2540 82bd
00000010: 568d b03d f517 8dba babe 823d 572a 1e3d
00000020: 383b 843c 10f5 5ebc
0.07087466 -0.025050243 -0.07328744 -0.06359891 0.08620708 -0.0010764586 0.063840345 0.038614597
0.016141519 -0.013608232

conv_block_2.2.weight f4 [10, 10, 3, 3]
00000000: a9a5 e6bc c7b1 bebc 08ac a33d 9fa7 c6bd
00000010: 68f3 54bc 049e 80bd e92a 9bbd 3c73 a1bc
00000020: f48a a1bd 733f f63c 9e19 b2bc 394e b53b
00000030: 0f2c 423b fa0e 9b3b 9d0b b93c 25f3 dd3c
00000040: 0c21 a1bd 9a38 cbbd ae69 863d 9b0a bfbd
00000050: 0054 b13d 58b2 493b 6468 c7bc d053 f1bb
00000060: 8050 a0bd 77f8 913d 1eb3 9b3c 6895 8abc
00000070: a5ab a5bd 62af 92bd 9d5b 97bd 997b f53c
00000080: f8d7 82bd 0449 d2bd e873 cbbd 54cb b4bc
00000090: a38a ec3c cc38 d0bb d4dc b5bd cbc3 87bc
000000a0: 12b1 58bd b0b6 033d 0f45 89bd 6729 813d
000000b0: 1872 c43d 2b2e b53d 652a b5bd 26db 2abc
000000c0: 01fa 55bd 3c08 9a3c 4871 d0bd 4016 f93c
000000d0: 56b2 c9bd 4d66 aeb9 988f c0bd 2326 f0bb
000000e0: 7d7e 66bd dfbe 543d 83be da3d 774b d3bc
000000f0: 5b3f 6a3d 6fa0 c63d b20c 87bc 64b5 273d
00000100: 0fb2 a33c 5989 4cbd 62fa 1abb e2ba 7fbd
00000110: b0e7 8f3d f5f9 a0bd 71cf e23c a69a bb3d
00000120: a69f 9b3d 3fbf 303d f29b 9abc f149 03bd
00000130: b8d8 6bbd bdb3 2bbd d706 ce3c 3ad8 463d
00000140: edf6 be3d f9aa 8f3d 7d24 12bd e3c8 4abd
00000150: 9486 0ebd 98c1 30bd 6a04 b4bd 69d4 dfbc
00000160: 70f0 183d bc76 f1bd d9a4 e0bd adbf 9f3d
00000170: 81ab e5bd abf8 ff3a 3ae9 953d 80b8 7fbb
00000180: 9971 dabd be89 543d e428 ab3d 05de 263d
00000190: 2e64 173d 91af 4f3d 85c5 66bc c03d b7bd
000001a0: a4e9 babc 8b5f 513d 5c39 ef3c 6f5e 063d
000001b0: 51f3 a13d 5b0a c1bd 3afd d93b be35 f83b
000001c0: 694d b63b 4f1d 963d f7e3 4a3d 8ce0 593d
000001d0: 5768 50bd 6bb7 9ebd cf64 40bd 1692 f83c
000001e0: 3239 463c 825f 4bbd 3f07 babc 421c e4bd
000001f0: f6c7 fbbc 9117 97bd 6e01 0f3d e238 813d
00000200: e850 97bd c308 62b9 a191 093d 2c7b 2b3c
00000210: d1de a73b 94d6 303d 600b 6d3d 0faa 43bc
00000220: f379 8c3c b855 cebd 76c4 a63d 88f5 923d
00000230: 0bff 873d fb56 883c e22a d1bd 32a3 bb3d
00000240: b7b5 d93d 8818 aebd 8c7f 353c 0dc4 5a3c
00000250: 3f86 cabc 2149 8bbb b13a a73d 58ef b1bd
00000260: af52 813b c560 593d b1e8 aa3c d1de fcbc
00000270: e4d3 7bbd f747 0fbb 88a1 073d fca5 7ebd
00000280: af99 5dbd f89e c33b 9d01 b6bd ef7e 573d
00000290: e3c9 ed3b a831 1a3d 34fc 2cbd b392 c63b
000002a0: 01dc 283c 09bc 9b3d 7123 583d 28ff 4abd
000002b0: 7c21 84bc 64a3 f23b e50a b4bd d553 95bd
000002c0: d01c 773d 2bb1 e5bd d686 edba 1abb efbc
000002d0: fa5c b3bd ddbe 1f3d 8d79 82bd d94b bcbb
000002e0: 2bb7 80bd fd2e c5bc b270 0dbd 5cbf 803d
000002f0: adac e4bd 69dc cd3d 03e9 c4bd 0c7a 85bd
00000300: 6717 9abd 044d 8cbd 9e92 ca3d e688 e3bd
00000310: 05fd ef3a 47b2 c43d f6c7 b1bc d8f6 0d3d
00000320: d4ec 8e3d df86 a13d 775d 84bd d194 e63a
00000330: de62 6a3d d485 de3c 96d0 4e3d 3a9d 9dbd
00000340: 6d10 7bbd c209 91bd cff4 c0bc cbfe a5bd
00000350: cfac f53b a13b e2bc 7512 47bc db68 c33c
00000360: 3a59 aa3d bfc9 b83d a0f5 e5bd a4ed c2bd
00000370: d03f bcbd edbc bdbc 365b 873d 45b1 1ebd
00000380: 2b12 e1bd 0ef6 823d 3698 523d 0ec2 733d
00000390: 2465 4dbd a123 853d f826 253d 7927 1d3d
000003a0: be35 3bbd b8c5 37bd e83b 29bd cefd 0fbd
000003b0: cfa7 7cbd e89b 49bd 4bbf 5f3c 601b 83bc
000003c0: e10f e9bd cb51 b5bb 66cd 03bd 6daa 8f3d
000003d0: a6d5 443d 84e1 99bc 7d71 bdbd e35a dbbd
000003e0: 99b8 68bc e6cd bbbd dedd d5bd d5b8 03bc
000003f0: 5f0b 4abd 67cb 693c c620 3cbb 1736 d6bc
-0.028155165 -0.02327813 0.07991797 -0.0969994 -0.012997486 -0.06280139 -0.07576544 -0.019708268
-0.07887831 0.030059552 -0.02174073 0.0055330065 0.0029628312 0.00473201 0.022588545 0.02709348
-0.07867631 -0.09922905 0.065631256 -0.09328195 0.086586 0.0030776467 -0.02434177 -0.0073647276
-0.07827854 0.07127469 0.019006308 -0.016916946 -0.08089379 -0.07162358 -0.07390521 0.029966163
-0.06388849 -0.10267833 -0.09934217 -0.02206961 0.0288747 -0.006354427 -0.0888001 -0.016572854
-0.052903242 0.032156646 -0.06702625 0.06306725 0.09592074 0.088466965 -0.08845977 -0.010428226
-0.052240375 0.018802755 -0.10177857 0.030406117 -0.09848468 -0.00033264086 -0.09402388 -0.007328765
-0.056272972 0.05193984 0.106808685 -0.02579282 0.057189327 0.09698569 -0.016485546 0.040944472
0.019982366 -0.049935672 -0.0023647775 -0.062434085 0.07026613 -0.078601755 0.027686806 0.09160356
0.0759881 0.043151136 -0.018873189 -0.032052938 -0.057579726 -0.04191946 0.025149746 0.048546053
0.09324441 0.07015032 -0.03567933 -0.049507987 -0.034796312 -0.043153375 -0.087899044 -0.027322965
0.037338674 -0.11790225 -0.10968942 0.07800231 -0.112143524 0.0019529065 0.07319875 -0.0039019883
-0.10666198 0.051889174 0.08357409 0.040739078 0.036960773 0.050704543 -0.014085178 -0.08947325
-0.022816487 0.051116508 0.029202156 0.032804903 0.07907737 -0.09425803 0.0066525014 0.007574766
0.005563427 0.07329809 0.04953381 0.05319266 -0.050880756 -0.07749828 -0.04697114 0.030343097
0.012098597 -0.04965163 -0.022708533 -0.11138202 -0.030734997 -0.07377542 0.034913473 0.06309678
-0.073884785 -0.00021556304 0.03358615 0.010466378 0.0051229973 0.043173388 0.057872176 -0.011942401
0.017147994 -0.10074943 0.08142941 0.071757376 0.066404425 0.016643038 -0.10213257 0.091619864
0.106303625 -0.08500773 0.011077773 0.013352406 -0.024722217 -0.004250661 0.08165491 -0.08688229
0.003946624 0.053070802 0.020862909 -0.030867966 -0.06148137 -0.0021862963 0.033113033 -0.062170014
-0.054101642 0.0059698783 -0.088870265 0.052611288 0.007256733 0.037645012 -0.042232707 0.0060599684
0.010306359 0.07604224 0.052768175 -0.049559742 -0.016129248 0.0074047316 -0.087911405 -0.0729138
0.060330212 -0.11215433 -0.0018121849 -0.029264022 -0.08757968 0.03900038 -0.0637084 -0.0057463464
-0.062849365 -0.024070257 -0.034531303 0.06286499 -0.11165748 0.100518055 -0.09614756 -0.06517419
-0.07523995 -0.06850627 0.09891246 -0.11110096 0.0018309659 0.09604316 -0.021701794 0.034659237
0.06978765 0.07887053 -0.064631395 0.0017591958 0.057223193 0.027163424 0.05049189 -0.07696004
-0.06129496 -0.07081939 -0.023554234 -0.081052385 0.007497407 -0.027616324 -0.012150397 0.02385371
0.083178 0.09022855 -0.1122849 -0.095179826 -0.09191859 -0.023161376 0.06609194 -0.038743276
-0.109897934 0.063945875 0.05141469 0.059511237 -0.050145283 0.06500936 0.040320367 0.038367722
-0.04570555 -0.044866294 -0.041316897 -0.035154156 -0.061683472 -0.04922095 0.013656448 -0.016004264
-0.11379982 -0.005533432 -0.032178305 0.07014928 0.048055314 -0.018784292 -0.09250162 -0.10710695
-0.014204168 -0.091701314 -0.104427084 -0.008039673 -0.04932725 0.014269686 -0.0028706058 -0.026148839

conv_block_2.2.bias f4 [10]
00000000: 94b3 a53d 5ae3 a43c 7ec7 893d 7d7a 0dbd
00000010: 5c2f c33d e776 4a3d 3fe5 173d aff4 c8bd
00000020: 29ed bebd 2460 653b
0.080908924 0.02012794 0.06727503 -0.034540642 0.095305175 0.0494298 0.03708386 -0.09812295
-0.093225785 0.0034999931

classifier.1.weight f4 [3, 1690]
00000000: be51 1bbc be2d 7e3c a7be 9fbc 20d2 773c
00000010: cb11 fdbb da72 7d3c 12ef f9bb bbca 9abc
00000020: dc13 a93c 5dba 83bc b997 783c e714 24bc
00000030: f475 b4bc 9695 8abc d046 b8bc a9cf c63b
00000040: 3f00 a7bc f842 34bb 8937 31bb 2037 78b7
00000050: 55a4 c1bc c109 2cbb 2564 9f3c 3eb9 dabb
00000060: e889 87bc 8f22 213b 384f 483c f169 3e3c
00000070: 204d 1ebb b427 efbc 8569 7d3b 951b 893c
00000080: af22 21bb 1c05 363c 3d60 85ba f9f6 b6bc
00000090: 2edd d1bc 7ba3 f13b b3d7 06b9 f823 95bb
000000a0: 5164 0a3c 819c a5bc e3f8 753c db6f 4ebc
000000b0: 1bf9 f0ba 4b30 edbc c602 fe3a 123c cfbb
000000c0: 9d3a 66bc f5ca 323b 2d38 9fbc 1842 b2bc
000000d0: 4f1f 3cba a379 ac3b 9606 2f3c 262d 2fbc
000000e0: 87d4 bebc 95b6 59bc a844 57bc ada1 21bc
000000f0: d503 c9bc 0c67 67ba 5522 663a 7331 f3bc
00000100: 4d71 623c fac7 e1bc efb4 dfbc 202c 273c
00000110: be84 81bc 707e d0bc 5ded 043c 7104 bebb
00000120: 2dae 823c d1dc 073c c50d 2fbc 73d3 81bb
00000130: 2f34 b0bc 92fa 55bc 8d59 9abc 53f2 353c
00000140: 6866 a3bc 19b2 aeba ca72 01bd 0ce9 5b3c
00000150: bf56 38bc a56a f3ba 5916 92bc 5c30 afbc
00000160: 256c c9bc 4c84 1fbc 87cf 81bc c433 a3bb
00000170: e408 afbc d42f b5bc 2147 9fbb db19 23bc
00000180: f28e f7bc 1c05 18ba c321 a6bb 6da9 473b
00000190: dc66 563c 1326 8bbc 386e cebb 42d7 cfbc
000001a0: 7312 e9b9 c39b d0bc 7721 a5bc b501 d4bc
000001b0: 1bc7 f3bc a521 a4bc c568 7aba 56e5 eebb
000001c0: 8618 713c eb9e fbbb 8e8c 85b9 bd68 d0bc
000001d0: 34f3 a0bb 41bc 9c3c 10b4 f83a 9830 06bd
000001e0: 602c 4bbc 9f1d 3bbc d2b4 f53a a286 233c
000001f0: 2fa8 de3a 3d43 603c 1d64 23bb 5152 60bc
00000200: 8fe7 9dbc 6434 943b 033c 06bc 6e68 683a
00000210: eb17 5b3c 5ebb 48bc 2350 a9bc f3f0 6fbc
00000220: 4f02 1cbc 8c5a 803c d371 27bc fe13 c6bb
00000230: dd7b e3bc df6d 74bc 2ad8 4a3c 33c5 e2bc
00000240: e6b5 493c 2cd0 683c 3490 7dbc 2fe3 a5bc
00000250: 9738 aaba ae4c e1bc 0c4f 02bc b664 123c
00000260: f3dd c7bc 8a71 703c da53 d3bc dc9d a23c
00000270: 6d77 53bc 9b23 09ba f6a1 9dbc c845 8bbc
00000280: 10b0 b5bc 6798 edbb 3361 c2bb fe73 ba3a
00000290: 960a c2bc 90cf 17bc 8140 b1bb 2c0f 7bbc
000002a0: 6424 54bc bb01 403c 8113 8cbb 7497 1abb
000002b0: 7f96 20bb 9943 b0bc 6502 1c3c 2171 833c
000002c0: 857b 3f3c 3cdf 20bc 6e89 733c 2de8 34bc
000002d0: 2d28 ac3c f147 d73b d496 41bc e6fa f83b
000002e0: be76 a93c d405 5d3c 9da7 efbb 6a45 ddbc
000002f0: daaa 73ba daf2 a7bb f6f0 893b c17c e2bb
00000300: 77ce 0e3c e3dd 893c 40bb dfbb 4448 843c
00000310: d1e1 a03c 1377 41bc 38ef 163c 4ffd 8e3c
00000320: fe7f b0ba 1a0a 073c f807 35bc 1733 89bc
00000330: 562f 9e3c 2834 94bb 4f0c 71bc e825 603c
00000340: 3eca d53b bdda 41bc f56d 67bc c58f 823b
00000350: a20f 9abc c119 e8bc 636a 963b 19a4 c0bc
00000360: a768 3a3c 9c86 e7bc d137 90bc 642d 0dbc
00000370: 1519 1cbc a2c6 4e3c e479 f9bc e1e2 c0bc
00000380: bf5d a53b 85b5 463c ed1a 3d3c 9047 edbb
00000390: e886 193c 18b4 b73b 4948 a7bb eeca a0ba
000003a0: 0acf cabc 4eff f4bc 7128 2e3c 98e4 fdbc
000003b0: f80c f13b bf9a b0bc dfa2 13bb 5e2f 76bc
000003c0: 820a a7bc b562 d9bc fef2 4abb 1158 84bc
000003d0: 8669 acbc 706c ae3b 0f29 bdbc 223a d2bc
000003e0: 225f c0bc 0f93 d63b 9cce 1a3c cfdd b1bc
000003f0: e3d2 12bc e908 873b 45d2 04bd e898 0cbd
-0.009479938 0.0155138355 -0.01950009 0.015125781 -0.0077230684 0.015469277 -0.0076273764 -0.018895498
0.020639353 -0.016080076 0.015172892 -0.010014749 -0.0220289 -0.016917031 -0.022494704 0.0060672355
-0.02038586 -0.0027505737 -0.0027041158 -1.4794787e-05 -0.02363793 -0.002625093 0.019456932 -0.0066749146
-0.016545251 0.002458725 0.0122259185 0.011621938 -0.0024154857 -0.029193737 0.003866763 0.016736785
-0.0024587323 0.011109617 -0.0010175776 -0.022334563 -0.025618162 0.0073742247 -0.0001285959 -0.004551407
0.008446769 -0.020216228 0.0150129525 -0.012599911 -0.0018384786 -0.028953692 0.0019379489 -0.0063242996
-0.01405206 0.0027281616 -0.019435966 -0.021760032 -0.0007176296 0.0052635237 0.010682723 -0.010691917
-0.0232947 -0.01328816 -0.0131389275 -0.009865207 -0.02453796 -0.0008827306 0.00087789196 -0.029686665
0.013820958 -0.027561177 -0.027307956 0.010203391 -0.015810367 -0.025450915 0.008113232 -0.0057988693
0.015952194 0.008292393 -0.010684435 -0.0039619743 -0.021509258 -0.013060229 -0.01884153 0.011105138
-0.019946292 -0.0013328224 -0.031603612 0.013422262 -0.011251151 -0.0018571211 -0.017832922 -0.021385364
-0.0245877 -0.009736132 -0.015846027 -0.004980536 -0.021366544 -0.022117533 -0.004860774 -0.009954895
-0.030219529 -0.0005799101 -0.0050699427 0.0030465976 0.013086047 -0.016985929 -0.00629976 -0.025371198
-0.0004445497 -0.025464898 -0.020157559 -0.02587972 -0.029758027 -0.020035574 -0.0009552355 -0.0072905226
0.0147153195 -0.0076788566 -0.00025472458 -0.025440568 -0.0049118046 0.019132735 0.0018974561 -0.032761186
-0.012400717 -0.011420636 0.0018745905 0.009980829 0.0016987378 0.013687906 -0.0024931498 -0.013691501
-0.019275455 0.004522847 -0.008193019 0.0008865659 0.013372402 -0.012251703 -0.020668095 -0.014644849
-0.009522035 0.015668176 -0.010220009 -0.0060448637 -0.027769024 -0.014918773 0.012380639 -0.027681923
0.012311434 0.014209788 -0.015476275 -0.020249931 -0.0012986836 -0.027502384 -0.007953417 0.008935144
-0.024397826 0.014675507 -0.02579682 0.019850664 -0.012906891 -0.0005231441 -0.019242268 -0.017001048
-0.02217868 -0.007250834 -0.005931997 0.0014225242 -0.023686688 -0.009265795 -0.005409301 -0.0153234415
-0.012948129 0.011719163 -0.004274786 -0.0023588808 -0.0024503765 -0.021516608 0.009522055 0.016045155
0.011687164 -0.009818848 0.014864309 -0.011041683 0.021015251 0.0065698554 -0.011815745 0.007598269
0.020686503 0.013490159 -0.007313682 -0.027010638 -0.0009295173 -0.0051253857 0.004209633 -0.0069118445
0.008716217 0.016829437 -0.006827742 0.01614774 0.019638928 -0.011808175 0.009212308 0.017454771
-0.0013465879 0.0082421545 -0.011049263 -0.016747994 0.01930968 -0.004522819 -0.014712407 0.013680913
0.0065243533 -0.011831936 -0.014125337 0.003984424 -0.018806282 -0.028332593 0.004590319 -0.023515748
0.01137749 -0.028262429 -0.01760474 -0.008616779 -0.009527464 0.0126206 -0.03045363 -0.023545684
0.005046576 0.012128239 0.011542064 -0.007241197 0.009370543 0.0056061856 -0.0051050526 -0.0012267509
-0.024756927 -0.029906895 0.010629759 -0.030992791 0.0073562823 -0.021558164 -0.0022527499 -0.015025942
-0.020390753 -0.026536325 -0.0030967589 -0.016155275 -0.021046411 0.0053229854 -0.023090867 -0.025662486
-0.023482863 0.0065482925 0.009448674 -0.021712212 -0.008961412 0.004120935 -0.03242709 -0.03432551

classifier.1.bias f4 [3]
00000000: baea 3d3c f244 febb 319b fb3b
0.011591608 -0.0077596838 0.0076784124
