models/05_going_modular_cell_mode_tinyvgg_model.pth (torch, 37525 bytes, 10 tensors)

conv_block_1.0.weight f4 [10, 3, 3, 3]
0	0x3e1426ef	0.14467977
1	0x3e211c19	0.15733375
2	0xbd47a1ea	-0.048738398
3	0x3e311c79	0.17296018
4	0xbd396c40	-0.04526925
5	0x3d1330ed	0.03593533
6	0xbdc8804f	-0.09790098
7	0x3ddefaee	0.10887705
8	0x3e29127f	0.16510962
9	0xbe33944c	-0.1753704
10	0x3e0aecd9	0.13566913
11	0x3aca8eb2	0.0015453903
12	0x3dd923f7	0.10602563
13	0xbbba6c23	-0.0056891604
14	0x3d7a645c	0.061130866
15	0xbd87021c	-0.06592199
16	0x3de37ff8	0.111083925
17	0xbc0b5dd4	-0.008506257
18	0xbdc1e8e4	-0.094682485
19	0x3d490465	0.049076457
20	0xbdbd02a1	-0.09229017
21	0xbd020267	-0.031740572
22	0xbda407e8	-0.080093205
23	0x3e00cb75	0.12577613
24	0xbe2aa097	-0.16662823
25	0xbdcec623	-0.10096385
26	0xbd864ffa	-0.06558223
27	0xbd5016f4	-0.05080314
28	0x3da9347c	0.08261964
29	0xbe008e85	-0.12554367
30	0x3e723958	0.23654687
31	0xbdccdbd5	-0.10002867
32	0x3e5a630f	0.2132685
33	0x3dbe918c	0.093051046
34	0xba946485	-0.0011321461
35	0x3e39d773	0.18148594
36	0x3d4a1a5e	0.049341552
37	0x3e316592	0.17323902
38	0x3d1d2d1e	0.038373105
39	0xbd3c985c	-0.04604374
40	0x3d851180	0.064974785
41	0xbd18ded4	-0.03732188
42	0x3dbc8faf	0.09207093
43	0x3e3af302	0.18256763
44	0x3dfe3ea7	0.12414294
45	0xbcd913e5	-0.026498744
46	0x3e294498	0.16530073
47	0x3db380d2	0.08764805
48	0x3e18f311	0.14936472
49	0xbd8e314e	-0.06942998
50	0xbe109812	-0.1412051
51	0xbce99a6b	-0.028516015
52	0xbdd411d3	-0.10354962
53	0x3e5104e7	0.20412026
54	0x3c7bf726	0.015378749
55	0x3d2914ec	0.04127972
56	0x3cad5978	0.021160826
57	0xbd32afe2	-0.043624766
58	0x3de76a59	0.11299581
59	0xbe31ba5b	-0.17356245
60	0xbce3d864	-0.027813144
61	0xbe2e503a	-0.17022792
62	0x3cb67ce2	0.022276346
63	0xbda5a132	-0.08087386
64	0x3d433172	0.047654577
65	0xbd5ec44c	-0.054386422
66	0x3e12e528	0.14345229
67	0xbe0251dc	-0.1272654
68	0xbe031e89	-0.12804617
69	0xbe05df31	-0.13073422
70	0x3e21148f	0.15730499
71	0x3d498f64	0.049209014
72	0x3e19927c	0.14997286
73	0xbe4057bc	-0.18783468
74	0xbe642cdd	-0.22282739
75	0xbe3e72e9	-0.18598522
76	0xbe235ffe	-0.15954587
77	0x3d41b246	0.047289155
78	0x3d0e7414	0.03477867
79	0x3e028562	0.12746194
80	0xbe066844	-0.13125712
81	0xbe21ba5d	-0.15793748
82	0x3d95d11d	0.07315276
83	0xbdde43b9	-0.10852761
84	0x3dbc9c4d	0.092094995
85	0xbd929f1e	-0.071592554
86	0x3da797f6	0.08183281
87	0xbe30f97f	-0.17282675
88	0xbdf88991	-0.12135614
89	0x3d034b99	0.032054517
90	0x3d8989d4	0.06715742
91	0xbcc61dc6	-0.024184119
92	0x3e08f740	0.13375568
93	0x3e25834b	0.16163366
94	0xbddba2d9	-0.1072442
95	0xbd9be3a7	-0.076117806
96	0x3e547c32	0.20750502
97	0xbd0709bc	-0.032968268
98	0xbd27cdf8	-0.04096791
99	0xbe466df5	-0.19377883
100	0xbdefa5ba	-0.11701532
101	0x3ceb3d16	0.028715651
102	0xbce1ba43	-0.027554637
103	0xbe0c0e79	-0.13677396
104	0xbaaaf324	-0.0013042432
105	0xbe04f801	-0.12985231
106	0xbe20fef7	-0.15722261
107	0xbdda9644	-0.10673192
108	0xbe1feb0d	-0.15617009
109	0xbde53bea	-0.11193068
110	0x3e409a32	0.18808821
111	0x3d3bb155	0.045823414
112	0x3d89727e	0.06711291
113	0xbe39a8d7	-0.18130814
114	0xbdf82412	-0.12116255
115	0xbd705300	-0.058672905
116	0x3cf2e264	0.029648967
117	0xbe0de138	-0.13855445
118	0xbd6af797	-0.057365026
119	0xbde13cf8	-0.10997957
120	0x3ceff3c5	0.029291043
121	0xbd4a5487	-0.049397018
122	0xbbaa3a48	-0.005194936
123	0xbdd9b66c	-0.10630497
124	0xbde27cd6	-0.11058967
125	0xbdcb42da	-0.0992486
126	0xbd8ec246	-0.069706485
127	0xbe27d6c7	-0.16390525
128	0x3e079e4f	0.13243984
129	0xbd2da9cf	-0.04239827
130	0x3e1bc58b	0.15212075
131	0x3d0ca894	0.034340456
132	0xbe28ecf5	-0.16496642
133	0x3e00551d	0.12532468
134	0xbd8a0853	-0.06739869
135	0xbddbe2f1	-0.10736645
136	0xbe47b721	-0.19503452
137	0xbe6381dd	-0.22217508
138	0x3d137384	0.035998836
139	0xbd7c6e8c	-0.061628863
140	0x3d6f4142	0.058411844
141	0xbe339ab7	-0.17539488
142	0x3dfda549	0.12385041
143	0xbe1c56bc	-0.15267462
144	0xbd892e07	-0.06698232
145	0x3bb754dc	0.005594833
146	0x3d8fc2b0	0.070195556
147	0x3e08a2ce	0.13343355
148	0x3e1e30a3	0.15448241
149	0xbe2cc080	-0.16870308
150	0x3cd2a3fb	0.025712958
151	0xbdd56b84	-0.104208976
152	0xbd07d3c7	-0.03316095
153	0xbe390dd8	-0.18071687
154	0x3e0f0f1c	0.13970608
155	0xbe2f045a	-0.17091504
156	0x3da36396	0.07977979
157	0x3d3a34f7	0.045460667
158	0x3d33c216	0.043886267
159	0xbe0538fe	-0.13010022
160	0x3e19f8c3	0.15036301
161	0x3cdaa032	0.026687715
162	0x3c80d1f6	0.015725117
163	0xbe3807de	-0.17971751
164	0x3d90b1c8	0.07065159
165	0xbcffdc29	-0.03123291
166	0xbdbf6db1	-0.09347094
167	0x3e1e5f23	0.1546598
168	0x3d276ca3	0.04087509
169	0xbde0d6f7	-0.10978501
170	0xbdd72c35	-0.10506479
171	0xbc846497	-0.016161246
172	0x3dcc7950	0.09984076
173	0xbd685716	-0.056723677
174	0xbde130c0	-0.109956264
175	0xbd8c5c4b	-0.06853541
176	0xbe1bc3cb	-0.15211408
177	0x3d8c1528	0.06839973
178	0x3e17b75f	0.14816044
179	0xbe3fe0c5	-0.18738087
180	0x3d20311b	0.03910933
181	0x3dbeb347	0.09311538
182	0x3ce9432b	0.028474411
183	0xbd8b4fe3	-0.068023466
184	0x3dcaa848	0.09895378
185	0x3dc14668	0.09437257
186	0x3d94dcce	0.07268678
187	0xbd07f090	-0.033188403
188	0xbd60360e	-0.05473905
189	0xbc067f62	-0.008209081
190	0xbd76b3ff	-0.06023025
191	0xbda72e7a	-0.081631616
192	0x3dc24a2a	0.09486802
193	0x3e0ec565	0.13942488
194	0xbd31f5b7	-0.043447223
195	0xbd96cbb3	-0.07363071
196	0xbcdef02c	-0.027214132
197	0xbd2027e9	-0.03910056
198	0x3cf2b674	0.029628016
199	0x3d20a6de	0.039221637
200	0xbe4134e7	-0.18867837
201	0xbdb3fa58	-0.08787984
202	0x3e16abfb	0.14714043
203	0x3d783511	0.060597483
204	0xbcf059c8	-0.029339686
205	0xbe0b182b	-0.13583438
206	0xbe0b278e	-0.13589308
207	0xbe3d1eb1	-0.18468739
208	0xbd93d01f	-0.0721743
209	0x3d68ec4a	0.056865968
210	0x3de0857d	0.10962961
211	0x3da0d413	0.0785295
212	0xbe37467d	-0.17897983
213	0xbe051b21	-0.1299863
214	0xbd38a07a	-0.045074917
215	0x3e30c4c6	0.17262563
216	0x3c5e77f1	0.013578401
217	0xbd875bf6	-0.06609337
218	0x3d789707	0.060690906
219	0xbda6f4ec	-0.08152184
220	0xbe0ae905	-0.13565452
221	0x3e016a0e	0.12638113
222	0xbdbd2e34	-0.09237328
223	0xbd403ee8	-0.046934992
224	0xbe4f509e	-0.20245597
225	0x3e117492	0.14204624
226	0x3e216f23	0.15765052
227	0x3da7a57c	0.081858605
228	0xbddcead9	-0.10786981
229	0xbe276641	-0.163476
230	0xbe07bb0b	-0.13254945
231	0x3e2e9e6c	0.1705262
232	0x3defd8c6	0.11711268
233	0x3e3d399f	0.18479012
234	0x3d64d532	0.05586738
235	0x3b826821	0.0039796983
236	0xbd3c286f	-0.045936998
237	0xbe3bbff1	-0.18334939
238	0xbe4a4f17	-0.19756733
239	0xbe5891d4	-0.21149379
240	0x3d1f7f11	0.03893954
241	0xbe05a9ad	-0.13053007
242	0xbd93506c	-0.07193074
243	0xbde2d410	-0.11075604
244	0xbd0fa473	-0.03506894
245	0xbe0ab437	-0.13545309
246	0xbe00c495	-0.1257499
247	0x3d82bd61	0.063837774
248	0xbd6a45cd	-0.057195473
249	0x3df3517b	0.118807755
250	0xbd7ce2be	-0.061739676
251	0xbe109033	-0.14117508
252	0xbd0b151f	-0.03395569
253	0xbdbf0ea9	-0.09328968
254	0xbd712a91	-0.058878485
255	0xbe3b9bd5	-0.18321164

conv_block_1.0.bias f4 [10]
0	0x3c925e29	0.017867165
1	0xbe4b3b14	-0.19846755
2	0x3e00d212	0.12580135
3	0x3e5cbbb8	0.21555984
4	0x3e78c780	0.24294853
5	0xbd76b7ef	-0.060234006
6	0xbe28959c	-0.16463321
7	0x3ca53307	0.020165933
8	0x3e2debe0	0.1698451
9	0xbe4424f7	-0.19154726

conv_block_1.2.weight f4 [10, 10, 3, 3]
0	0xbb3a2300	-0.002840221
1	0xbd49bf17	-0.049254503
2	0x3a6e17d6	0.00090825313
3	0xbcd4bd4c	-0.02596917
4	0xbcd6624a	-0.026169915
5	0xbca76509	-0.02043392
6	0xbd940f58	-0.07229489
7	0x3de2128b	0.11038693
8	0x3dd8fc5b	0.10595008
9	0xbd959965	-0.07304648
10	0xbdaae15b	-0.083437644
11	0xbdcfc524	-0.101450235
12	0xbe162457	-0.146623
13	0xbe1f9f97	-0.15588222
14	0xbca124c1	-0.019670846
15	0xbdd9391d	-0.106065966
16	0xbdf3117b	-0.118685685
17	0xbd82639d	-0.06366656
18	0x3b66ab9b	0.00351975
19	0x3c0c6126	0.008568084
20	0x3d2529eb	0.04032318
21	0x3c7ef77b	0.015561934
22	0x3c15b02f	0.009136244
23	0xbbf4d11d	-0.0074712173
24	0xbd6aa2f3	-0.057284307
25	0x3dfa6169	0.12225611
26	0xbbb150e8	-0.005411256
27	0x3ded88dd	0.1159837
28	0x3d74e009	0.05978397
29	0x3df41222	0.11917521
30	0x3e3b6a24	0.18302208
31	0x3e0817b6	0.13290295
32	0x3c1fbc02	0.009749414
33	0x3e064597	0.13112484
34	0x3e3c55b8	0.18392074
35	0x3df382a8	0.11890155
36	0x3e1822e6	0.14857063
37	0x3e402bc5	0.18766697
38	0x3d8de606	0.06928639
39	0x3db06478	0.08612913
40	0x3ba51d92	0.0050389254
41	0x3d827e33	0.06371727
42	0x3e14f987	0.14548312
43	0x3e02a622	0.12758687
44	0x3c4ede39	0.012626224
45	0xbdacf5ce	-0.08445321
46	0xbd4a11b4	-0.04933329
47	0xbe095e0d	-0.13414784
48	0xbd9798e4	-0.074022084
49	0xbd0d867a	-0.034552075
50	0x3d817d54	0.063227326
51	0x3dc654d7	0.09684151
52	0xbc886bd9	-0.016652988
53	0xbd341494	-0.043964937
54	0x3dac97d1	0.08427394
55	0xbd37bac9	-0.044855867
56	0xbc7b767e	-0.015348075
57	0x3d4f1dba	0.05056546
58	0xbd2d44fe	-0.042302124
59	0xbc3c508e	-0.011493815
60	0xbc1653f9	-0.009175294
61	0xbccc4aef	-0.024938075
62	0xbd5aea12	-0.053445883
63	0xbd369e50	-0.044584572
64	0xbcc942f2	-0.024568055
65	0xbc96948c	-0.01838138
66	0x3e0b60c0	0.13611126
67	0xbc56d684	-0.013112668
68	0xbcd80d4c	-0.026373528
69	0x3d9d45b7	0.07679313
70	0x3da3060d	0.079601385
71	0x3dbfee9e	0.093716845
72	0x3e250b13	0.16117506
73	0x3e1edf27	0.15514813
74	0x3a72808d	0.0009250723
75	0x3db83493	0.08994403
76	0x3e195f79	0.14977826
77	0x3dac4c4a	0.084129885
78	0x3c9f00b2	0.019409511
79	0x3e41ac4a	0.1891338
80	0x3d6be3d4	0.05759032
81	0xbd75d16f	-0.060014185
82	0xbdc2a045	-0.09503225
83	0x3b9a4960	0.004708454
84	0x3d3f5355	0.04671033
85	0x3cbf264c	0.023333691
86	0x3caac268	0.020844653
87	0xbda3b823	-0.07994106
88	0xbdc99b1a	-0.098440364
89	0x3af34b61	0.0018561893
90	0x3dea1fe3	0.11431863
91	0x3d9f735d	0.07785676
92	0xbd33509d	-0.04377805
93	0x3bded935	0.0068007954
94	0xbd6e644a	-0.05820111
95	0xbd0624d8	-0.03274998
96	0x3d22ae45	0.039716978
97	0x3d9cdb14	0.07658973
98	0x3dd85f45	0.10565046
99	0xbd0f1703	-0.034934055
100	0x3e05833b	0.13038342
101	0xbc3cf4c0	-0.011532962
102	0x3dc14160	0.094362974
103	0x3e138c5a	0.14409009
104	0x3d5a13e6	0.053241633
105	0x3e1572d4	0.14594585
106	0xbd21039b	-0.03931008
107	0x3bd09fd8	0.006366711
108	0x3d740b54	0.059581116
109	0xbcc2b89e	-0.023769673
110	0xbca93f62	-0.020660106
111	0xbd26a61d	-0.04068576
112	0x3d9fbfd3	0.078002594
113	0x3d656d04	0.05601217
114	0x3d20b8bc	0.039238676
115	0xbd6cc224	-0.057802334
116	0xbdb76d61	-0.08956409
117	0xbd978180	-0.07397747
118	0xbd51b674	-0.05119939
119	0xbe078efc	-0.13238138
120	0xbddb2b26	-0.10701589
121	0xbbc1827b	-0.005905447
122	0xbd9b4284	-0.07581046
123	0xbd9caa1d	-0.07649634
124	0xbdd7455c	-0.10511276
125	0xbe33f2cd	-0.1757309
126	0xbe3edc36	-0.18638691
127	0xbe07dc31	-0.1326759
128	0xbe18be97	-0.14916454
129	0xbd5d78ef	-0.05407041
130	0xbe002aa2	-0.12516263
131	0xbe1a476b	-0.15066306
132	0x3b5094ac	0.0031826897
133	0xbd7d673c	-0.06186603
134	0xbccc04d4	-0.024904646
135	0xbd3fa39b	-0.046786886
136	0xbd33c900	-0.04389286
137	0x3d108744	0.03528525
138	0xbdaeb69b	-0.08530923
139	0xbdbfc894	-0.09364429
140	0xbc3073ae	-0.010769768
141	0xbd3a9a81	-0.045557503
142	0xbdac8188	-0.084231436
143	0x3d3cb380	0.046069622
144	0x3d9d6042	0.07684375
145	0x3cd8dddb	0.026472976
146	0xbc1549f3	-0.009111869
147	0xbdc9aff1	-0.09848011
148	0xbcd9f205	-0.026604662
149	0x3caa3542	0.020777348
150	0x3d0a7773	0.033805322
151	0xbc96950d	-0.01838162
152	0xbd2c4d23	-0.04206575
153	0x3d540c76	0.051769696
154	0xbda1d514	-0.079019696
155	0x3d9293be	0.07157086
156	0xbd60d1d7	-0.05488762
157	0xbbf8fbce	-0.007598377
158	0xbd22b107	-0.039719608
159	0x3bda1424	0.006655233
160	0xbd1936d2	-0.037405796
161	0x3d8d79fc	0.06908032
162	0xbdef3d76	-0.116816446
163	0xbcb6056b	-0.02221938
164	0x3c00605f	0.007835477
165	0xbe2a4a74	-0.16629964
166	0xbe367af6	-0.17820343
167	0xbb888666	-0.004166412
168	0xbc25e2cb	-0.010124872
169	0xbe3f052d	-0.18654318
170	0xbde522e6	-0.11188297
171	0xbdd4e215	-0.10394684
172	0xbdb0b7b9	-0.08628792
173	0x3ca6c7f1	0.020359011
174	0x3ce5b968	0.02804251
175	0x3cb70c5f	0.022344766
176	0xbceb0485	-0.028688679
177	0x3dc72a15	0.097248234
178	0x3c76ed32	0.0150712
179	0xbd7ec5d9	-0.0622004
180	0xbd2ccef4	-0.042189553
181	0xbc0674de	-0.008206574
182	0x3c212e4b	0.009837697
183	0xbde5a9b8	-0.11214012
184	0xbad6c54f	-0.0016385707
185	0xbdb4850b	-0.088144384
186	0xbdf2db82	-0.11858274
187	0xbdc32a86	-0.09529595
188	0x3d87c861	0.06630016
189	0x3d6b44b0	0.057438552
190	0x3d673f98	0.056457132
191	0x3c9d813a	0.01922666
192	0x3d635f9b	0.0555111
193	0xbd4fbc43	-0.05071665
194	0xbdd85ef2	-0.105649844
195	0x3d1e078e	0.038581423
196	0xbd9d04c2	-0.07666923
197	0xbde39afa	-0.11113544
198	0xbd18dfff	-0.037322994
199	0x39aa8edc	0.00032531365
200	0x3d076dce	0.033063702
201	0xbd72df37	-0.059294906
202	0xbd822eee	-0.063566074
203	0x3c1cbbf4	0.009566296
204	0xbd9ce81a	-0.07661457
205	0xbd2b0bff	-0.041759487
206	0x3da9fa83	0.082997344
207	0xbd1a7158	-0.03770575
208	0x3df708ed	0.12062249
209	0x3e0500b0	0.12988544
210	0x3c814f13	0.015784776
211	0x3d7958b9	0.06087563
212	0x3d5596cd	0.052145768
213	0xbc893856	-0.016750496
214	0xbca586be	-0.020205852
215	0x3c3f91f0	0.011692509
216	0x3d18049a	0.037113763
217	0x3dd813e5	0.105506696
218	0xbc814bfa	-0.015783299
219	0xbd479239	-0.048723433
220	0xbcb186c4	-0.021670707
221	0xbcc18904	-0.023624904
222	0x3bc6f327	0.0060714665
223	0x3d822a08	0.06355673
224	0x3d93d0bf	0.072175495
225	0x3cfeda66	0.03111
226	0xbdbe2733	-0.092848204
227	0xbd67b9c6	-0.05657365
228	0xbb90799e	-0.004409029
229	0xbc9f2a8e	-0.019429471
230	0x3c0e0b3e	0.0086696725
231	0xbd9fc46c	-0.078011364
232	0x3c758ab2	0.014986681
233	0xbda4affb	-0.08041378
234	0xbd889883	-0.06669714
235	0xbdb37a32	-0.08763541
236	0x3dbc1950	0.091845155
237	0xbdcc6c73	-0.099816225
238	0x3da2d9ef	0.07951724
239	0xbb683a9c	-0.0035435325
240	0xbc48d9d8	-0.012258969
241	0x3d8706f3	0.06593122
242	0xbc1f9ff4	-0.009742726
243	0x3d87d3db	0.06632205
244	0x3da38002	0.079834
245	0xbdc09323	-0.09403064
246	0x3d527f9a	0.05139122
247	0x3cfec4fc	0.031099789
248	0x3c96f692	0.01842812
249	0x3d0c3f80	0.034240246
250	0x3d3a8e50	0.045545876
251	0xbd01ae33	-0.03166027
252	0xbce4aacc	-0.027913474
253	0x3e0727b4	0.1319874
254	0x3dd2a6ef	0.10285746
255	0xbcdb14d4	-0.02674333

conv_block_1.2.bias f4 [10]
0	0x3d8601b4	0.065432936
1	0x3c114eeb	0.008868913
2	0xbdd1be0f	-0.10241329
3	0xbdbaf3fc	-0.091285676
4	0x3d210f7e	0.039321415
5	0xbd4efa38	-0.050531596
6	0xbc7bde1c	-0.015372779
7	0xbce89fdb	-0.028396538
8	0x3bfe2003	0.007755281
9	0x3d32e848	0.043678552

conv_block_2.0.weight f4 [10, 10, 3, 3]
0	0xbdc06ac8	-0.09395367
1	0x3cb708c8	0.022343054
2	0x3d733c0d	0.05938344
3	0xbe192a37	-0.1495751
4	0xbe53ab16	-0.20670733
5	0xbe092f1f	-0.13396882
6	0xbdc40e90	-0.0957309
7	0xbdb8c5fa	-0.09022136
8	0xbcb81f80	-0.022475958
9	0xbbce2404	-0.0062909145
10	0xbd273295	-0.040819723
11	0xbd0f15b0	-0.034932792
12	0xbc6c8211	-0.014435307
13	0x3e012b9c	0.12614292
14	0xbd03e721	-0.032202844
15	0xbd6fa30a	-0.058505096
16	0x3d78b7e7	0.060722258
17	0xba5288b4	-0.00080312346
18	0x3db86d51	0.090052254
19	0x3d354373	0.044253778
20	0x3dd0b0b5	0.10189954
21	0xbda0c545	-0.07850126
22	0x3d63d7ef	0.055625852
23	0x3dc2c06d	0.095093586
24	0xbd68a6d3	-0.05679972
25	0x3e259636	0.16170582
26	0x3dacd51b	0.08439084
27	0xbc1b5963	-0.009481761
28	0x3d906359	0.07050199
29	0xbd36ae06	-0.044599555
30	0xbd8a66ae	-0.06757866
31	0x3d3b8bfa	0.04578779
32	0x3cf59b2b	0.029981216
33	0xbd849f33	-0.06475677
34	0x3d839d46	0.06426482
35	0xbdc7c2ff	-0.097539894
36	0x3dc25633	0.094890974
37	0x3e07c540	0.13258839
38	0x3d8d8f75	0.06912128
39	0xbd9f6ddd	-0.07784627
40	0x3daccaa0	0.08437085
41	0x3d9137dc	0.070907325
42	0x3d1669de	0.036722057
43	0x3d33737e	0.043811314
44	0x3dd09795	0.10185162
45	0xbcea647d	-0.02861237
46	0xbc670212	-0.014099615
47	0x3d08e475	0.033421
48	0x3c0ff4b7	0.008786372
49	0x3dcc495c	0.0997493
50	0xbd4b3746	-0.04961326
51	0x3bfe26cf	0.007756091
52	0x3ca00b95	0.019536773
53	0xbccbd427	-0.024881436
54	0x3d9ee598	0.07758635
55	0x3c9675b2	0.018366668
56	0xbdc220f3	-0.09478941
57	0xbb4d0304	-0.0031282315
58	0xbd342b90	-0.043986857
59	0x3c421d1e	0.011847762
60	0xbbffe79f	-0.007809594
61	0xbdd3253b	-0.103098355
62	0xbcb15a07	-0.021649374
63	0xbc2abddd	-0.0104212435
64	0xbd010ea6	-0.03150811
65	0x3dc41ae5	0.09575442
66	0xbcbca1ac	-0.02302631
67	0x3d8997b1	0.06718386
68	0x3ccf4c1e	0.02530485
69	0xbdb8671d	-0.09004042
70	0x3cba0553	0.022707617
71	0x3dafcb64	0.085837156
72	0xbd7ea826	-0.062172078
73	0xbd708e72	-0.058729596
74	0x3de80ba1	0.11330343
75	0x3d90313f	0.07040643
76	0xbd7c38aa	-0.061577477
77	0x3d9d84a6	0.07691316
78	0xbc9d5ce2	-0.019209329
79	0xbdde3ee0	-0.10851836
80	0x3bf38e08	0.007432703
81	0x3d352141	0.044221167
82	0xbcef3c41	-0.029203536
83	0x3cd705ef	0.026247947
84	0xbd9cf07e	-0.07663058
85	0x3da9959b	0.08280488
86	0x3dae0ffc	0.084991425
87	0x3d80692c	0.0627006
88	0x3cafdb69	0.021466928
89	0x3cf0006b	0.029297074
90	0xbe199172	-0.14996889
91	0xbdb5ac83	-0.088707946
92	0xbc9fade5	-0.019492099
93	0xbdc540ed	-0.09631524
94	0xbe13eb84	-0.14445311
95	0x3d47eeb5	0.048811633
96	0x3d6f994b	0.0584958
97	0xbdd29d7a	-0.102839425
98	0x3c7d07bc	0.015443739
99	0x3d8c2f11	0.06844915
100	0x3df0851e	0.1174414
101	0x3d84defe	0.06487845
102	0x3de907cd	0.11378441
103	0xbc8bb55d	-0.017054254
104	0x3da31986	0.079638526
105	0x3db29d01	0.08721352
106	0xbdc4db1b	-0.096121036
107	0xbda120a0	-0.07867551
108	0x3befb0fe	0.0073148003
109	0x3ba277cc	0.0049581286
110	0xbd9a452e	-0.07532726
111	0xbd16ed6d	-0.03684752
112	0xbd66d041	-0.05635095
113	0x3d202c97	0.039105024
114	0xbd0af2dc	-0.033923015
115	0x3d9167ef	0.07099902
116	0x3dba13de	0.090858206
117	0xbd9ae841	-0.0756383
118	0x3b31739c	0.0027076965
119	0x3c1dda23	0.009634527
120	0x3ca22061	0.01979083
121	0x3dc67573	0.096903704
122	0x3d00dcd0	0.031460583
123	0xbcba6af6	-0.022756081
124	0x3db0d331	0.086340316
125	0xbd4ad6b8	-0.049521178
126	0x3c131489	0.008977064
127	0x3d4428ae	0.047890358
128	0xbd8ab90d	-0.06773577
129	0x3c5d794e	0.013517691
130	0xbcc989d9	-0.024601864
131	0x3ca120a2	0.01966888
132	0x3d0dd590	0.034627497
133	0x3d165101	0.036698345
134	0xbd37299e	-0.044717424
135	0xbde09aee	-0.109670505
136	0x3dcb7ab3	0.099355124
137	0x3dd2abb8	0.10286659
138	0xbdbf0aea	-0.093282536
139	0x3dae8d2b	0.085230194
140	0xbdc91e40	-0.09820223
141	0x3c630bf3	0.013857829
142	0x3dbce5b4	0.092235
143	0x3d868b15	0.065694965
144	0xbdb4d33d	-0.08829353
145	0x3d782d0a	0.060589828
146	0x3d57b08e	0.05265861
147	0xbb277911	-0.002555434
148	0x3dc7e52c	0.09760508
149	0xbd5f1d5e	-0.054471366
150	0xbcd04c26	-0.025426935
151	0xbd5a4885	-0.053291816
152	0x3c712283	0.014717701
153	0x3cec55d6	0.028849524
154	0x3c369bd9	0.011145555
155	0xbd71b11d	-0.0590068
156	0xbd2ca3c7	-0.042148378
157	0x3d2b0ce5	0.041760344
158	0xbdbe0679	-0.09278578
159	0xbc87a1ba	-0.01655661
160	0xbb0b4521	-0.002125092
161	0xbd327be6	-0.04357519
162	0x3d47c503	0.04877187
163	0x3ba19f8e	0.0049323505
164	0x3d908eb8	0.070584714
165	0x3b004cfa	0.0019577132
166	0xbd6fc6c7	-0.05853918
167	0x3d9e8a32	0.077412024
168	0x3c407c40	0.0117483735
169	0xbd025c73	-0.031826448
170	0xbda734e9	-0.08164389
171	0x3d2e18ed	0.04250424
172	0xbdbd01f8	-0.09228891
173	0x3cbc09cb	0.022953888
174	0x3d793e1a	0.06085024
175	0xbdaf5fcd	-0.085631944
176	0xbd95a8ff	-0.07307624
177	0xbda9da3d	-0.08293579
178	0x3dab7268	0.08371431
179	0x3db36dd1	0.0876118
180	0xbdf1be75	-0.11803905
181	0x3c22488d	0.009904993
182	0xbda30663	-0.079602025
183	0xbe6329b0	-0.22183871
184	0xbd21957c	-0.0394492
185	0x3c069d72	0.008216249
186	0x3d786002	0.060638435
187	0xbc9afa0e	-0.018918063
188	0x3dbe3ea6	0.09289293
189	0x3da7185e	0.081589445
190	0x3da0b715	0.0784742
191	0xbdedd4b5	-0.11612836
192	0x3dc86f93	0.09786906
193	0xbdbe9e9c	-0.09307596
194	0x3da55391	0.0807258
195	0xbc814d5a	-0.015783954
196	0xbdeb038b	-0.11475285
197	0x3a60b520	0.00085719116
198	0xbd2c4179	-0.042054627
199	0xbdf601f3	-0.120120905
200	0xbd41e65e	-0.047338836
201	0xbb81e36e	-0.0039638793
202	0x3cffedc4	0.031241305
203	0xbd09d19b	-0.03364716
204	0x3cafeda8	0.021475628
205	0x3d0313a3	0.03200115
206	0xbc08d505	-0.008351569
207	0x3c698e89	0.014255174
208	0xbd8577a6	-0.06516962
209	0xbd902c0e	-0.07039653
210	0xbcb58164	-0.022156425
211	0xbdd9fdfc	-0.10644147
212	0xbd39d37c	-0.045367703
213	0x3b455b53	0.0030114248
214	0xbd67b773	-0.056571435
215	0xbd1a4d5e	-0.03767144
216	0x3d87f2fb	0.06638142
217	0x3cef501c	0.029213004
218	0xbd4f5ea1	-0.050627355
219	0x3daadcdb	0.08342906
220	0x3d3a95fc	0.045553192
221	0x3d5ae5b3	0.053441714
222	0x3d70eba6	0.05881848
223	0xbc96a0ba	-0.018387187
224	0xbd41302a	-0.047165073
225	0x3ca254f8	0.019815907
226	0xbcb66836	-0.022266489
227	0x3ca35af4	0.01994083
228	0x3d07407b	0.033020478
229	0x3d5118e3	0.051049124
230	0x3d30a1d8	0.043123096
231	0x3d9ba76f	0.07600295
232	0x3bb60ea0	0.0055559427
233	0xbdb7a10d	-0.08966265
234	0x3d32a157	0.043610897
235	0xbd91906c	-0.071076244
236	0xbc124930	-0.008928582
237	0xbd05e04a	-0.0326846
238	0xbd28cf01	-0.04121304
239	0xbd1ea210	-0.038728774
240	0x3dc990c3	0.09842064
241	0x3d6d332a	0.057910122
242	0x3cf21b26	0.029553961
243	0x3dc362d3	0.095403336
244	0xbdcb8db9	-0.09939141
245	0x3c5b00cf	0.013366892
246	0x3d80f56b	0.0629681
247	0x3d854317	0.06506937
248	0xbdb5a441	-0.088692196
249	0x3d050167	0.03247204
250	0xbd8729cf	-0.06599771
251	0xbc3075dc	-0.010770287
252	0xbc179f83	-0.009254339
253	0xbd85dfa1	-0.065367945
254	0xbda3f8b0	-0.08006418
255	0xbd84f651	-0.064922936

conv_block_2.0.bias f4 [10]
0	0x3d572c36	0.052532397
1	0x3c2ff5bf	0.010739743
2	0x3cbcffb2	0.023071144
3	0x3da056ce	0.07829057
4	0xbd85e7e5	-0.06538371
5	0xbd96aeb6	-0.07357542
6	0x3d7d7163	0.061875712
7	0xbb29df6d	-0.0025920526
8	0xbd47d731	-0.048789207
9	0xbdbd9ff4	-0.09259024

conv_block_2.2.weight f4 [10, 10, 3, 3]
0	0x3d8f73fd	0.07004545
1	0xbcdadf12	-0.026717696
2	0xbd442edc	-0.04789625
3	0xbd95dc0b	-0.073173605
4	0xbd58d869	-0.05294076
5	0x3c956896	0.018238347
6	0xbd2fa47a	-0.042881466
7	0x3d43312a	0.04765431
8	0xbd3b9fba	-0.045806624
9	0xbd2a35ca	-0.041555203
10	0x3d137c55	0.036007244
11	0xbcd4a67a	-0.025958288
12	0xbd531b30	-0.0515396
13	0x3c387924	0.011259351
14	0x3d747f41	0.05969167
15	0xbc082aeb	-0.008311014
16	0x3d346d17	0.04404935
17	0x3d1b1a9c	0.037867174
18	0xbd124c5d	-0.035717357
19	0xbccb7098	-0.024833962
20	0xbcb5a78d	-0.022174621
21	0xbd350dcb	-0.044202607
22	0x3d28e3a5	0.041232724
23	0x3d4714ad	0.048603702
24	0xbc676ff5	-0.014125814
25	0xbd6df818	-0.05809793
26	0x3d2aaa02	0.04166604
27	0xbdc03183	-0.093844436
28	0x3d888a38	0.06666988
29	0x3d2d4c9b	0.042309385
30	0x3d677a78	0.05651328
31	0xbc996d45	-0.018728862
32	0xbdbd4f01	-0.092435844
33	0x3d6f25e4	0.058385745
34	0xbd82ae52	-0.06380905
35	0x3c082bc4	0.008311216
36	0x3d749c04	0.0597191
37	0xbdc9be61	-0.09850765
38	0x3be53970	0.0069953725
39	0xbd195f0a	-0.037444152
40	0x3d80c35e	0.06287263
41	0xbd620317	-0.055178728
42	0x3d83131f	0.064001314
43	0x3d869d7a	0.06573005
44	0x3d6e34d6	0.058155857
45	0x3d979797	0.0740196
46	0x3c82c7ab	0.01596435
47	0xbd92b13b	-0.0716271
48	0x3da68878	0.08131498
49	0x3c1e1a85	0.009649877
50	0xbcb5b6fa	-0.022181977
51	0xbd9c7c3c	-0.07640883
52	0xbcc21471	-0.023691388
53	0xbcdb4c52	-0.02676979
54	0x3dca98b4	0.09892407
55	0x3d8e283d	0.069412686
56	0x3d8f9307	0.07010465
57	0x3d7a84ac	0.061161682
58	0xbda07f06	-0.07836728
59	0xbd74e2c0	-0.05978656
60	0xbd805f6d	-0.06268201
61	0xbd860dd2	-0.06545605
62	0x3d73e105	0.059540767
63	0x3cb48531	0.022036167
64	0x3d91708b	0.07101544
65	0xbca001a7	-0.019532038
66	0xbdd4d42a	-0.103920296
67	0xbd324782	-0.043525226
68	0x3d6ec91e	0.05829727
69	0x3d630334	0.055422977
70	0x3ca7572b	0.020427307
71	0xbd353db2	-0.04424829
72	0xbde306d9	-0.110852905
73	0xbd353036	-0.04423543
74	0x3d611bfb	0.054958325
75	0xbd2e26fa	-0.04251764
76	0x3d9ac126	0.075563714
77	0x3cebc643	0.028781062
78	0xbce61f1a	-0.028091002
79	0x3dd00d77	0.10158818
80	0xbd0abcc4	-0.033871427
81	0xbb65816f	-0.0035019775
82	0xbd24762c	-0.04015176
83	0xbdccc6a0	-0.09998822
84	0x3c8b3b31	0.016995998
85	0x3cf98754	0.030460037
86	0xbd59619b	-0.0530716
87	0x3d846e06	0.06466298
88	0xbdc1a79a	-0.094557956
89	0xbdd019fc	-0.10161206
90	0xbe0676a9	-0.13131203
91	0xbdbc7e8b	-0.09203824
92	0xbd7dc333	-0.061953735
93	0xbda974e1	-0.08274246
94	0xbc8b4466	-0.017000388
95	0xbe1b52cc	-0.15168303
96	0xbcaa5016	-0.020790141
97	0xbd3ff1cc	-0.046861455
98	0xbbb2a287	-0.0054515037
99	0x3da62f8e	0.08114539
100	0x3d011788	0.03151658
101	0xbdc32498	-0.09528464
102	0xbe0956bb	-0.13411991
103	0xbdee87f4	-0.11647025
104	0xbe122889	-0.14273275
105	0xbc8f0607	-0.017458929
106	0xbdc876cb	-0.09788283
107	0xbc8a5a33	-0.016888713
108	0x3d58cb01	0.052927975
109	0xbce00d87	-0.0273502
110	0xbc826730	-0.015918344
111	0x3cc08437	0.023500545
112	0xbd38c796	-0.045112215
113	0x3d348321	0.044070367
114	0xbdbe7f71	-0.09301651
115	0x3cf70b60	0.030156791
116	0xbdcf734f	-0.10129415
117	0xbdf5ab34	-0.11995545
118	0xbd5fb21a	-0.05461321
119	0x3c9030c7	0.017601384
120	0x3ceb4860	0.028721035
121	0xbcca680f	-0.024707822
122	0xbd7779f6	-0.060419045
123	0xbd5aaeee	-0.053389482
124	0xbdca9ced	-0.098932125
125	0xbd8832e1	-0.066503294
126	0xbbeea76b	-0.0072831414
127	0x3db7b44a	0.08969934
128	0x3d7caed1	0.061690155
129	0xbdacc039	-0.08435101
130	0x3c4af199	0.012386703
131	0xbd589e30	-0.052885234
132	0xbc891323	-0.016732758
133	0xbdab92b5	-0.083775915
134	0x3ce07acf	0.02740231
135	0xbd53c72e	-0.051703624
136	0x3dd51e94	0.10406223
137	0x3de34f31	0.11099089
138	0xbd949a06	-0.0725594
139	0xbdcb3dd3	-0.099239014
140	0x3b86c4df	0.0041128243
141	0xbcf10d0e	-0.02942517
142	0x3cdbe87a	0.026844252
143	0xbd922187	-0.07135301
144	0xbc5bd8f5	-0.013418426
145	0xbe183bed	-0.1486661
146	0xbdd40638	-0.10352749
147	0xbdfecd83	-0.12441542
148	0xbcc6999d	-0.02424317
149	0xbd891b18	-0.06694621
150	0xbe158c7d	-0.14604373
151	0xbde4cee3	-0.11172273
152	0xbdbc8f67	-0.09207039
153	0xbde03c1e	-0.109489664
154	0xbb774589	-0.0037730655
155	0x3ca24837	0.019809825
156	0xbccacf70	-0.024757117
157	0xbd610c45	-0.05494334
158	0xbc778292	-0.015106814
159	0xbdbd0245	-0.092289485
160	0xbd95bc50	-0.073113084
161	0xbc85b850	-0.016323239
162	0x3d8baffb	0.06820675
163	0x3bb0c5dd	0.005394681
164	0x3d56010d	0.052247096
165	0xbd29eafa	-0.041483857
166	0xbce5dd7b	-0.028059712
167	0xbdcd8107	-0.10034376
168	0x3db2da11	0.08732999
169	0x3dd234de	0.1026399
170	0xbb1117b1	-0.0022139365
171	0x3d892997	0.06697386
172	0x3db09364	0.086218625
173	0x3d567601	0.05235863
174	0x3d5e5ce3	0.054287802
175	0xbdcd8394	-0.10034862
176	0xbdcadab8	-0.099049985
177	0xbda5b1f8	-0.080905855
178	0x3d070c13	0.0329705
179	0xbdbabac5	-0.09117655
180	0xbe2c617d	-0.16834064
181	0xbe0b9e80	-0.13634682
182	0xbe372eab	-0.17888896
183	0xbd2f33ed	-0.04277413
184	0xbd870d1b	-0.065942965
185	0xbe004085	-0.12524612
186	0x3e16ef6a	0.14739767
187	0x3c05bcbe	0.008162675
188	0xba1eab37	-0.00060527347
189	0xbce00f85	-0.02735115
190	0xbd14c9b8	-0.036325186
191	0xbe0b8c2d	-0.13627692
192	0xbe1ba29b	-0.15198748
193	0xbe573cd9	-0.21019305
194	0xbe042fd6	-0.12908873
195	0x3db9844a	0.09058435
196	0x3cbda69a	0.02315073
197	0xbdc25d04	-0.094903976
198	0xbdfc34de	-0.12314771
199	0xbe203a40	-0.1564722
200	0xbdde1328	-0.108434975
201	0xb7a45b80	-1.9592931e-05
202	0xbe007a47	-0.12546645
203	0xbe089572	-0.13338259
204	0x3c5f92d7	0.013645849
205	0xbde1bebf	-0.1102271
206	0xbde61fdf	-0.11236548
207	0xbe21df66	-0.15807876
208	0xbddab724	-0.106794626
209	0x3c985df6	0.018599492
210	0xbcc845d8	-0.024447367
211	0xbdb919cc	-0.090381235
212	0xbd500933	-0.050790023
213	0x3c8b9537	0.017038925
214	0xbd705955	-0.058678944
215	0xbe1c6f96	-0.15276942
216	0xbd850158	-0.06494397
217	0xbd92a84d	-0.07161007
218	0xbb2f699c	-0.002676583
219	0xbdc59d80	-0.09649181
220	0xbbed073d	-0.007233529
221	0xbd1de196	-0.038545214
222	0x3dd3db3b	0.10344549
223	0x3daf7892	0.08567919
224	0x3d7ac98a	0.06122736
225	0x3cf778cc	0.030208968
226	0xbd0bca7b	-0.034128647
227	0x3d4c223b	0.049837332
228	0xbd952818	-0.07283038
229	0xbd382553	-0.04495747
230	0xbcad7793	-0.021175181
231	0xb9f58db3	-0.00046835616
232	0xbdfe753c	-0.124247044
233	0x3d8793dd	0.066199996
234	0xb9ffcde4	-0.0004879079
235	0xbe1e7ef8	-0.15478122
236	0xbd7aa7b6	-0.061195098
237	0xbd532615	-0.05154999
238	0xbd97f4e2	-0.074197546
239	0xbd90dd2d	-0.07073436
240	0x3e086940	0.133214
241	0x3d090cc6	0.033459447
242	0xbd88cb92	-0.06679453
243	0xbd3daff4	-0.04631038
244	0x3d1f1620	0.03883946
245	0x3cbab169	0.022789674
246	0x3caa25d4	0.020769991
247	0xbcc16d7f	-0.023611782
248	0xbd4e39ae	-0.050347976
249	0xbcc6380d	-0.024196649
250	0xbd5cf6a5	-0.053946156
251	0x3ab6852a	0.0013925184
252	0x3cf282bb	0.029603353
253	0x3dd967bb	0.10615488
254	0xbcc3143f	-0.023813365
255	0xbba02e02	-0.004888297

conv_block_2.2.bias f4 [10]
0	0x3d2f5131	0.04280204
1	0x3e268598	0.162619
2	0x3e02fac5	0.12790973
3	0xbdc4a4c1	-0.09601737
4	0x3b1e4cd7	0.0024154687
5	0xbd84b152	-0.06479134
6	0xbd3e5a67	-0.046472933
7	0x3dc14663	0.09437253
8	0xbd870be6	-0.06594066
9	0xbd9a9b0b	-0.07549103

classifier.1.weight f4 [3, 1690]
0	0xbacee3b7	-0.0015784417
1	0x3d388dca	0.045057096
2	0x3d0332d3	0.03203089
3	0x3d2ab492	0.04167611
4	0x3c7b4d05	0.015338187
5	0xbcb46f94	-0.02202586
6	0x3c4be222	0.012444051
7	0x3c91b3c8	0.017785922
8	0x3c33b910	0.010969415
9	0x3c22f539	0.009946161
10	0xbc179e65	-0.009254073
11	0x3bf633e6	0.007513511
12	0x3cdbce4d	0.02683177
13	0x3b8b94b4	0.00425967
14	0x3cbed164	0.023293205
15	0x3bf470ee	0.0074597513
16	0x3c49ec4f	0.012324407
17	0xbc680cf0	-0.014163241
18	0xbd21f034	-0.039535716
19	0xbcf53739	-0.029933559
20	0xbb8d9f1f	-0.004321947
21	0xbc781045	-0.015140598
22	0xbbcb15fe	-0.00619769
23	0xbca4b194	-0.020104207
24	0x3ca5acbb	0.020223966
25	0xbad116aa	-0.0015952189
26	0xba4288b3	-0.00074208825
27	0xba761409	-0.0009387141
28	0xbcd39836	-0.025829416
29	0xbca646cd	-0.020297432
30	0xbc608168	-0.013702728
31	0xbc223f59	-0.009902799
32	0xbd0d81e4	-0.0345477
33	0xbc3da477	-0.011574856
34	0xbd0e9eb7	-0.03481933
35	0x3ad0a695	0.0015918786
36	0x3ba130ec	0.004919162
37	0xbc9ae751	-0.018909128
38	0xbcd74190	-0.02627638
39	0xbcf4232e	-0.029801931
40	0x3bc9dbc8	0.006160233
41	0x3c8ccdf4	0.01718805
42	0x3cb93c5f	0.022611795
43	0x3b8dc034	0.004325891
44	0x3ca39c6f	0.019972054
45	0x3d005658	0.031332344
46	0x3b352713	0.0027641698
47	0xbc322c2e	-0.010874791
48	0xbcbd8de7	-0.023138953
49	0x3c33d20b	0.010975371
50	0xbb61d08a	-0.0034456574
51	0xbb450cea	-0.0030067512
52	0xbc47e184	-0.012199763
53	0x3ca211eb	0.019783935
54	0xbc02015b	-0.0079348935
55	0xbb85e584	-0.0040861983
56	0x3ce3a18e	0.027786996
57	0xbb3ef322	-0.0029136618
58	0x3d5a1ee7	0.053252127
59	0x3d0721b2	0.03299112
60	0x3bb67219	0.0055678007
61	0x3d0aeeaa	0.033919014
62	0x3c0b5ad3	0.008505541
63	0x3b9a5c40	0.004710704
64	0xbcdc199d	-0.026867682
65	0xbce28dfb	-0.027655592
66	0x3c6e3333	0.014538574
67	0x3d2dd3d5	0.042438347
68	0x3c89bc0a	0.016813297
69	0xba9a0acf	-0.0011752489
70	0x3c9eafce	0.01937094
71	0x3d22a1ef	0.039705213
72	0x3bd92d8a	0.006627743
73	0xbc1ba3d0	-0.009499505
74	0xbbaa7811	-0.0052023013
75	0x3c2231f6	0.009899607
76	0x3c63e86b	0.013910393
77	0x3b5750da	0.0032854588
78	0x3c398c08	0.01132489
79	0x3ce49575	0.027903298
80	0x3d0c6616	0.034277044
81	0xbbe78972	-0.0070659453
82	0xbbfe86f4	-0.0077675525
83	0x3c9eee6c	0.019400798
84	0x3ca3ecbc	0.020010345
85	0x3c36e2e7	0.011162496
86	0xbc8e6e1f	-0.017386494
87	0x3cf93e47	0.030425204
88	0xbb04f492	-0.0020287377
89	0x3c93e1fe	0.018052097
90	0x3adc9113	0.0016827903
91	0x3cc11289	0.023568409
92	0xbbf6e7a1	-0.0075349365
93	0x3bf8d71e	0.0075940033
94	0x3ccb7bf2	0.024839375
95	0x3ce90b0a	0.028447647
96	0x3bfde6cc	0.0077484604
97	0x3d345f17	0.044035997
98	0x3c9a24db	0.018816402
99	0x3b920de2	0.0044572214
100	0x3c33d5a1	0.010976226
101	0x3c994b12	0.018712554
102	0x3c0f4f04	0.008746866
103	0x3c7a0eb6	0.015262296
104	0x3a6e5bfc	0.0009092686
105	0x3c709dd8	0.01468607
106	0x3c194e98	0.009357117
107	0x3d699654	0.05702813
108	0x3cd75fe4	0.026290841
109	0x3c60a7c6	0.013711875
110	0x3d2a8003	0.041625988
111	0x3d08ed19	0.03342924
112	0x3d011ee2	0.031523593
113	0x3bf45589	0.0074564856
114	0x3cc7da1a	0.024395991
115	0x3b340cf9	0.0027473553
116	0xbb8b6dcd	-0.0042550326
117	0x3b877431	0.004133724
118	0x3d02d504	0.03194143
119	0x3d5bc465	0.053654093
120	0x3cf07196	0.029351037
121	0x3d02d40d	0.03194051
122	0x3d2e159f	0.04250109
123	0x3c92fd19	0.017942952
124	0x3ce4cb80	0.027929068
125	0x3c4987bf	0.012300431
126	0x3cb4035b	0.021974256
127	0xbb88da92	-0.0041764462
128	0x3c219f0f	0.009864583
129	0xbb6ff75a	-0.003661594
130	0xbce6c49a	-0.028169919
131	0xbc61c3c5	-0.013779585
132	0xbb6c07a1	-0.003601529
133	0x3b9a3602	0.0047061453
134	0x3cadb2ed	0.021203483
135	0x3ccb0454	0.024782337
136	0x3d450942	0.048104532
137	0x3bc63b40	0.0060495436
138	0x3cd80687	0.0263703
139	0xbbe280c9	-0.006912325
140	0x3be0f357	0.006864946
141	0x3c98b553	0.01864115
142	0xbc58a816	-0.013223669
143	0x3b9dae81	0.0048120623
144	0xbcbb7b59	-0.022885965
145	0x3c993956	0.018704098
146	0x3bdc1c5c	0.006717248
147	0x3d18984f	0.037254628
148	0x3d1ead47	0.03873947
149	0x3c014554	0.007890064
150	0x3c2bfed7	0.01049777
151	0x3c9ab27d	0.018883938
152	0xbc05cc05	-0.008166318
153	0x3d1e252b	0.038609665
154	0x3be8e7b3	0.007107699
155	0x3cf326a8	0.029681519
156	0xbd168df4	-0.03675647
157	0xbd0e44fd	-0.03473376
158	0xbc19cbef	-0.009387
159	0xbcab0375	-0.020875672
160	0x3ce942c5	0.028474221
161	0x3ce2b2be	0.027673122
162	0x3d1491e5	0.03627195
163	0xbc4791b6	-0.012180736
164	0x3c45548b	0.012044082
165	0x3ca01868	0.019542888
166	0x3d273ec2	0.040831335
167	0x3b93bc60	0.00450854
168	0x3c750934	0.0149558075
169	0xbd676b7a	-0.056498982
170	0xbd94a564	-0.07258108
171	0xbdb2616e	-0.087099895
172	0xbd38f49d	-0.045155156
173	0xbcbfba6f	-0.023404328
174	0x3c104ba8	0.0088071
175	0x3c7f675c	0.015588608
176	0x3c9925dc	0.01869481
177	0xbcd8f3f5	-0.026483515
178	0xbd6a9801	-0.05727387
179	0xbd46a3f2	-0.048496194
180	0xbdd2362d	-0.102642395
181	0xbd51eca7	-0.05125108
182	0xbd8360b7	-0.06414931
183	0x3cb99f14	0.022658862
184	0xbce7359b	-0.028223803
185	0xbd49950c	-0.049214408
186	0xbd6c244b	-0.0576518
187	0xbd695ba6	-0.05697217
188	0x3d20c9b1	0.039254848
189	0x3cd53385	0.026025543
190	0xbd294ec1	-0.04133487
191	0xbd0c364d	-0.034231473
192	0xbc01a4fa	-0.007912869
193	0xbca913fd	-0.020639414
194	0xbc700c61	-0.014651389
195	0x3b82112e	0.003969333
196	0x3cb0e795	0.021594802
197	0x3c356d0b	0.011073361
198	0xbd86c701	-0.06580926
199	0xbdb60a68	-0.088887036
200	0xbd886339	-0.0665955
201	0x3b82f9ac	0.0039970484
202	0xbc9287f2	-0.01788709
203	0xbd84ca34	-0.0648388
204	0xbd2a62e9	-0.041598234
205	0xbcf586e5	-0.02997155
206	0x3c6b0c86	0.014346248
207	0x3db96453	0.090523385
208	0xbce9c169	-0.028534608
209	0xbd342962	-0.04398478
210	0xbc8a56c5	-0.016887078
211	0xbcc5820b	-0.02410986
212	0xbd6c0219	-0.057619188
213	0xbe0fae11	-0.14031245
214	0xbdf71cca	-0.12066038
215	0xbdb4e695	-0.088330425
216	0xbdf0c269	-0.11755831
217	0xbdb68a70	-0.089131236
218	0xbdfb369c	-0.12266275
219	0xbd283834	-0.041069224
220	0x3d442594	0.0478874
221	0xbc26edd8	-0.010188542
222	0xbd056edd	-0.03257643
223	0x3ca1abd4	0.019735254
224	0xbca0e877	-0.019642098
225	0xbd74eccc	-0.05979614
226	0xbdfbe41a	-0.12299366
227	0xbe0a830a	-0.1352655
228	0xbdafa8ac	-0.085770935
229	0xbd7d90f2	-0.06190581
230	0xbde57330	-0.11203611
231	0xbdd28e99	-0.102811046
232	0xbd270054	-0.040771797
233	0x3cfc6407	0.030809416
234	0x3c941c9b	0.018080046
235	0xbd185396	-0.03718909
236	0xbdb39fe9	-0.08770735
237	0xbd943654	-0.07236925
238	0xbdaa6bf9	-0.083213754
239	0xbde784ec	-0.1130465
240	0xbd017410	-0.031604826
241	0xbbc1560c	-0.00590015
242	0xbd1cf44a	-0.03831891
243	0xbd937c49	-0.0720144
244	0xbdcbc7d8	-0.099502265
245	0xbd14e534	-0.036351398
246	0x3b9d918c	0.0048086103
247	0xbd220aa8	-0.039560944
248	0xbc612b23	-0.013743195
249	0xbcaf9ef5	-0.021438101
250	0xbcdb7b0c	-0.026792072
251	0xbd864f0b	-0.06558045
252	0xbd74eb1a	-0.059794523
253	0xbdc1f502	-0.0947056
254	0xbda3b689	-0.079938
255	0xbdaec144	-0.08532956

classifier.1.bias f4 [3]
0	0x3da3518a	0.07974537
1	0xbd87f955	-0.06639353
2	0xbd1ff1c3	-0.03904892
